…
worker 1 oversample 0.6600000000000001
worker 1 batch_size 2

#######################################################################
Please cite the following paper when using nnU-Net:
Isensee, F., Jaeger, P. F., Kohl, S. A., Petersen, J., & Maier-Hein, K. H. (2021). nnU-Net: a self-configuring method for deep learning-based biomedical image segmentation. Nature methods, 18(2), 203-211.
#######################################################################

UMambaEnc: UMambaEnc(
  (encoder): ResidualMambaEncoder(
    (stem): StackedConvBlocks(
      (convs): Sequential(
        (0): ConvDropoutNormReLU(
          (conv): Conv3d(3, 32, kernel_size=(1, 3, 3), stride=(1, 1, 1), padding=(0, 1, 1))
          (norm): InstanceNorm3d(32, eps=1e-05, momentum=0.1, affine=True, track_running_stats=False)
          (nonlin): LeakyReLU(negative_slope=0.01, inplace=True)
          (all_modules): Sequential(
            (0): Conv3d(3, 32, kernel_size=(1, 3, 3), stride=(1, 1, 1), padding=(0, 1, 1))
            (1): InstanceNorm3d(32, eps=1e-05, momentum=0.1, affine=True, track_running_stats=False)
            (2): LeakyReLU(negative_slope=0.01, inplace=True)
          )
        )
      )
    )
    (stages): ModuleList(
      (0): StackedResidualBlocks(
        (blocks): Sequential(
          (0): BasicBlockD(
            (conv1): ConvDropoutNormReLU(
              (conv): Conv3d(32, 32, kernel_size=(1, 3, 3), stride=(1, 1, 1), padding=(0, 1, 1))
              (norm): InstanceNorm3d(32, eps=1e-05, momentum=0.1, affine=True, track_running_stats=False)
              (nonlin): LeakyReLU(negative_slope=0.01, inplace=True)
              (all_modules): Sequential(
                (0): Conv3d(32, 32, kernel_size=(1, 3, 3), stride=(1, 1, 1), padding=(0, 1, 1))
                (1): InstanceNorm3d(32, eps=1e-05, momentum=0.1, affine=True, track_running_stats=False)
                (2): LeakyReLU(negative_slope=0.01, inplace=True)
              )
            )
            (conv2): ConvDropoutNormReLU(
              (conv): Conv3d(32, 32, kernel_size=(1, 3, 3), stride=(1, 1, 1), padding=(0, 1, 1))
              (norm): InstanceNorm3d(32, eps=1e-05, momentum=0.1, affine=True, track_running_stats=False)
              (all_modules): Sequential(
                (0): Conv3d(32, 32, kernel_size=(1, 3, 3), stride=(1, 1, 1), padding=(0, 1, 1))
                (1): InstanceNorm3d(32, eps=1e-05, momentum=0.1, affine=True, track_running_stats=False)
              )
            )
            (nonlin2): LeakyReLU(negative_slope=0.01, inplace=True)
          )
          (1): BasicBlockD(
            (conv1): ConvDropoutNormReLU(
              (conv): Conv3d(32, 32, kernel_size=(1, 3, 3), stride=(1, 1, 1), padding=(0, 1, 1))
              (norm): InstanceNorm3d(32, eps=1e-05, momentum=0.1, affine=True, track_running_stats=False)
              (nonlin): LeakyReLU(negative_slope=0.01, inplace=True)
              (all_modules): Sequential(
                (0): Conv3d(32, 32, kernel_size=(1, 3, 3), stride=(1, 1, 1), padding=(0, 1, 1))
                (1): InstanceNorm3d(32, eps=1e-05, momentum=0.1, affine=True, track_running_stats=False)
                (2): LeakyReLU(negative_slope=0.01, inplace=True)
              )
            )
            (conv2): ConvDropoutNormReLU(
              (conv): Conv3d(32, 32, kernel_size=(1, 3, 3), stride=(1, 1, 1), padding=(0, 1, 1))
              (norm): InstanceNorm3d(32, eps=1e-05, momentum=0.1, affine=True, track_running_stats=False)
              (all_modules): Sequential(
                (0): Conv3d(32, 32, kernel_size=(1, 3, 3), stride=(1, 1, 1), padding=(0, 1, 1))
                (1): InstanceNorm3d(32, eps=1e-05, momentum=0.1, affine=True, track_running_stats=False)
              )
            )
            (nonlin2): LeakyReLU(negative_slope=0.01, inplace=True)
          )
        )
      )
      (1): StackedResidualBlocks(
        (blocks): Sequential(
          (0): BasicBlockD(
            (conv1): ConvDropoutNormReLU(
              (conv): Conv3d(32, 64, kernel_size=(1, 3, 3), stride=(1, 2, 2), padding=(0, 1, 1))
              (norm): InstanceNorm3d(64, eps=1e-05, momentum=0.1, affine=True, track_running_stats=False)
              (nonlin): LeakyReLU(negative_slope=0.01, inplace=True)
              (all_modules): Sequential(
                (0): Conv3d(32, 64, kernel_size=(1, 3, 3), stride=(1, 2, 2), padding=(0, 1, 1))
                (1): InstanceNorm3d(64, eps=1e-05, momentum=0.1, affine=True, track_running_stats=False)
                (2): LeakyReLU(negative_slope=0.01, inplace=True)
              )
            )
            (conv2): ConvDropoutNormReLU(
              (conv): Conv3d(64, 64, kernel_size=(1, 3, 3), stride=(1, 1, 1), padding=(0, 1, 1))
              (norm): InstanceNorm3d(64, eps=1e-05, momentum=0.1, affine=True, track_running_stats=False)
              (all_modules): Sequential(
                (0): Conv3d(64, 64, kernel_size=(1, 3, 3), stride=(1, 1, 1), padding=(0, 1, 1))
                (1): InstanceNorm3d(64, eps=1e-05, momentum=0.1, affine=True, track_running_stats=False)
              )
            )
            (nonlin2): LeakyReLU(negative_slope=0.01, inplace=True)
            (skip): Sequential(
              (0): AvgPool3d(kernel_size=[1, 2, 2], stride=[1, 2, 2], padding=0)
              (1): ConvDropoutNormReLU(
                (conv): Conv3d(32, 64, kernel_size=(1, 1, 1), stride=(1, 1, 1), bias=False)
                (norm): InstanceNorm3d(64, eps=1e-05, momentum=0.1, affine=True, track_running_stats=False)
                (all_modules): Sequential(
                  (0): Conv3d(32, 64, kernel_size=(1, 1, 1), stride=(1, 1, 1), bias=False)
                  (1): InstanceNorm3d(64, eps=1e-05, momentum=0.1, affine=True, track_running_stats=False)
                )
              )
            )
          )
          (1): BasicBlockD(
            (conv1): ConvDropoutNormReLU(
              (conv): Conv3d(64, 64, kernel_size=(1, 3, 3), stride=(1, 1, 1), padding=(0, 1, 1))
              (norm): InstanceNorm3d(64, eps=1e-05, momentum=0.1, affine=True, track_running_stats=False)
              (nonlin): LeakyReLU(negative_slope=0.01, inplace=True)
              (all_modules): Sequential(
                (0): Conv3d(64, 64, kernel_size=(1, 3, 3), stride=(1, 1, 1), padding=(0, 1, 1))
                (1): InstanceNorm3d(64, eps=1e-05, momentum=0.1, affine=True, track_running_stats=False)
                (2): LeakyReLU(negative_slope=0.01, inplace=True)
              )
            )
            (conv2): ConvDropoutNormReLU(
              (conv): Conv3d(64, 64, kernel_size=(1, 3, 3), stride=(1, 1, 1), padding=(0, 1, 1))
              (norm): InstanceNorm3d(64, eps=1e-05, momentum=0.1, affine=True, track_running_stats=False)
              (all_modules): Sequential(
                (0): Conv3d(64, 64, kernel_size=(1, 3, 3), stride=(1, 1, 1), padding=(0, 1, 1))
                (1): InstanceNorm3d(64, eps=1e-05, momentum=0.1, affine=True, track_running_stats=False)
              )
            )
            (nonlin2): LeakyReLU(negative_slope=0.01, inplace=True)
          )
        )
      )
      (2): StackedResidualBlocks(
        (blocks): Sequential(
          (0): BasicBlockD(
            (conv1): ConvDropoutNormReLU(
              (conv): Conv3d(64, 128, kernel_size=(1, 3, 3), stride=(1, 2, 2), padding=(0, 1, 1))
              (norm): InstanceNorm3d(128, eps=1e-05, momentum=0.1, affine=True, track_running_stats=False)
              (nonlin): LeakyReLU(negative_slope=0.01, inplace=True)
              (all_modules): Sequential(
                (0): Conv3d(64, 128, kernel_size=(1, 3, 3), stride=(1, 2, 2), padding=(0, 1, 1))
                (1): InstanceNorm3d(128, eps=1e-05, momentum=0.1, affine=True, track_running_stats=False)
                (2): LeakyReLU(negative_slope=0.01, inplace=True)
              )
            )
            (conv2): ConvDropoutNormReLU(
              (conv): Conv3d(128, 128, kernel_size=(1, 3, 3), stride=(1, 1, 1), padding=(0, 1, 1))
              (norm): InstanceNorm3d(128, eps=1e-05, momentum=0.1, affine=True, track_running_stats=False)
              (all_modules): Sequential(
                (0): Conv3d(128, 128, kernel_size=(1, 3, 3), stride=(1, 1, 1), padding=(0, 1, 1))
                (1): InstanceNorm3d(128, eps=1e-05, momentum=0.1, affine=True, track_running_stats=False)
              )
            )
            (nonlin2): LeakyReLU(negative_slope=0.01, inplace=True)
            (skip): Sequential(
              (0): AvgPool3d(kernel_size=[1, 2, 2], stride=[1, 2, 2], padding=0)
              (1): ConvDropoutNormReLU(
                (conv): Conv3d(64, 128, kernel_size=(1, 1, 1), stride=(1, 1, 1), bias=False)
                (norm): InstanceNorm3d(128, eps=1e-05, momentum=0.1, affine=True, track_running_stats=False)
                (all_modules): Sequential(
                  (0): Conv3d(64, 128, kernel_size=(1, 1, 1), stride=(1, 1, 1), bias=False)
                  (1): InstanceNorm3d(128, eps=1e-05, momentum=0.1, affine=True, track_running_stats=False)
                )
              )
            )
          )
          (1): BasicBlockD(
            (conv1): ConvDropoutNormReLU(
              (conv): Conv3d(128, 128, kernel_size=(1, 3, 3), stride=(1, 1, 1), padding=(0, 1, 1))
              (norm): InstanceNorm3d(128, eps=1e-05, momentum=0.1, affine=True, track_running_stats=False)
              (nonlin): LeakyReLU(negative_slope=0.01, inplace=True)
              (all_modules): Sequential(
                (0): Conv3d(128, 128, kernel_size=(1, 3, 3), stride=(1, 1, 1), padding=(0, 1, 1))
                (1): InstanceNorm3d(128, eps=1e-05, momentum=0.1, affine=True, track_running_stats=False)
                (2): LeakyReLU(negative_slope=0.01, inplace=True)
              )
            )
            (conv2): ConvDropoutNormReLU(
              (conv): Conv3d(128, 128, kernel_size=(1, 3, 3), stride=(1, 1, 1), padding=(0, 1, 1))
              (norm): InstanceNorm3d(128, eps=1e-05, momentum=0.1, affine=True, track_running_stats=False)
              (all_modules): Sequential(
                (0): Conv3d(128, 128, kernel_size=(1, 3, 3), stride=(1, 1, 1), padding=(0, 1, 1))
                (1): InstanceNorm3d(128, eps=1e-05, momentum=0.1, affine=True, track_running_stats=False)
              )
            )
            (nonlin2): LeakyReLU(negative_slope=0.01, inplace=True)
          )
        )
      )
      (3): StackedResidualBlocks(
        (blocks): Sequential(
          (0): BasicBlockD(
            (conv1): ConvDropoutNormReLU(
              (conv): Conv3d(128, 256, kernel_size=(1, 3, 3), stride=(1, 2, 2), padding=(0, 1, 1))
              (norm): InstanceNorm3d(256, eps=1e-05, momentum=0.1, affine=True, track_running_stats=False)
              (nonlin): LeakyReLU(negative_slope=0.01, inplace=True)
              (all_modules): Sequential(
                (0): Conv3d(128, 256, kernel_size=(1, 3, 3), stride=(1, 2, 2), padding=(0, 1, 1))
                (1): InstanceNorm3d(256, eps=1e-05, momentum=0.1, affine=True, track_running_stats=False)
                (2): LeakyReLU(negative_slope=0.01, inplace=True)
              )
            )
            (conv2): ConvDropoutNormReLU(
              (conv): Conv3d(256, 256, kernel_size=(1, 3, 3), stride=(1, 1, 1), padding=(0, 1, 1))
              (norm): InstanceNorm3d(256, eps=1e-05, momentum=0.1, affine=True, track_running_stats=False)
              (all_modules): Sequential(
                (0): Conv3d(256, 256, kernel_size=(1, 3, 3), stride=(1, 1, 1), padding=(0, 1, 1))
                (1): InstanceNorm3d(256, eps=1e-05, momentum=0.1, affine=True, track_running_stats=False)
              )
            )
            (nonlin2): LeakyReLU(negative_slope=0.01, inplace=True)
            (skip): Sequential(
              (0): AvgPool3d(kernel_size=[1, 2, 2], stride=[1, 2, 2], padding=0)
              (1): ConvDropoutNormReLU(
                (conv): Conv3d(128, 256, kernel_size=(1, 1, 1), stride=(1, 1, 1), bias=False)
                (norm): InstanceNorm3d(256, eps=1e-05, momentum=0.1, affine=True, track_running_stats=False)
                (all_modules): Sequential(
                  (0): Conv3d(128, 256, kernel_size=(1, 1, 1), stride=(1, 1, 1), bias=False)
                  (1): InstanceNorm3d(256, eps=1e-05, momentum=0.1, affine=True, track_running_stats=False)
                )
              )
            )
          )
          (1): BasicBlockD(
            (conv1): ConvDropoutNormReLU(
              (conv): Conv3d(256, 256, kernel_size=(1, 3, 3), stride=(1, 1, 1), padding=(0, 1, 1))
              (norm): InstanceNorm3d(256, eps=1e-05, momentum=0.1, affine=True, track_running_stats=False)
              (nonlin): LeakyReLU(negative_slope=0.01, inplace=True)
              (all_modules): Sequential(
                (0): Conv3d(256, 256, kernel_size=(1, 3, 3), stride=(1, 1, 1), padding=(0, 1, 1))
                (1): InstanceNorm3d(256, eps=1e-05, momentum=0.1, affine=True, track_running_stats=False)
                (2): LeakyReLU(negative_slope=0.01, inplace=True)
              )
            )
            (conv2): ConvDropoutNormReLU(
              (conv): Conv3d(256, 256, kernel_size=(1, 3, 3), stride=(1, 1, 1), padding=(0, 1, 1))
              (norm): InstanceNorm3d(256, eps=1e-05, momentum=0.1, affine=True, track_running_stats=False)
              (all_modules): Sequential(
                (0): Conv3d(256, 256, kernel_size=(1, 3, 3), stride=(1, 1, 1), padding=(0, 1, 1))
                (1): InstanceNorm3d(256, eps=1e-05, momentum=0.1, affine=True, track_running_stats=False)
              )
            )
            (nonlin2): LeakyReLU(negative_slope=0.01, inplace=True)
          )
        )
      )
      (4): StackedResidualBlocks(
        (blocks): Sequential(
          (0): BasicBlockD(
            (conv1): ConvDropoutNormReLU(
              (conv): Conv3d(256, 320, kernel_size=(1, 3, 3), stride=(1, 2, 2), padding=(0, 1, 1))
              (norm): InstanceNorm3d(320, eps=1e-05, momentum=0.1, affine=True, track_running_stats=False)
              (nonlin): LeakyReLU(negative_slope=0.01, inplace=True)
              (all_modules): Sequential(
                (0): Conv3d(256, 320, kernel_size=(1, 3, 3), stride=(1, 2, 2), padding=(0, 1, 1))
                (1): InstanceNorm3d(320, eps=1e-05, momentum=0.1, affine=True, track_running_stats=False)
                (2): LeakyReLU(negative_slope=0.01, inplace=True)
              )
            )
            (conv2): ConvDropoutNormReLU(
              (conv): Conv3d(320, 320, kernel_size=(1, 3, 3), stride=(1, 1, 1), padding=(0, 1, 1))
              (norm): InstanceNorm3d(320, eps=1e-05, momentum=0.1, affine=True, track_running_stats=False)
              (all_modules): Sequential(
                (0): Conv3d(320, 320, kernel_size=(1, 3, 3), stride=(1, 1, 1), padding=(0, 1, 1))
                (1): InstanceNorm3d(320, eps=1e-05, momentum=0.1, affine=True, track_running_stats=False)
              )
            )
            (nonlin2): LeakyReLU(negative_slope=0.01, inplace=True)
            (skip): Sequential(
              (0): AvgPool3d(kernel_size=[1, 2, 2], stride=[1, 2, 2], padding=0)
              (1): ConvDropoutNormReLU(
                (conv): Conv3d(256, 320, kernel_size=(1, 1, 1), stride=(1, 1, 1), bias=False)
                (norm): InstanceNorm3d(320, eps=1e-05, momentum=0.1, affine=True, track_running_stats=False)
                (all_modules): Sequential(
                  (0): Conv3d(256, 320, kernel_size=(1, 1, 1), stride=(1, 1, 1), bias=False)
                  (1): InstanceNorm3d(320, eps=1e-05, momentum=0.1, affine=True, track_running_stats=False)
                )
              )
            )
          )
          (1): BasicBlockD(
            (conv1): ConvDropoutNormReLU(
              (conv): Conv3d(320, 320, kernel_size=(1, 3, 3), stride=(1, 1, 1), padding=(0, 1, 1))
              (norm): InstanceNorm3d(320, eps=1e-05, momentum=0.1, affine=True, track_running_stats=False)
              (nonlin): LeakyReLU(negative_slope=0.01, inplace=True)
              (all_modules): Sequential(
                (0): Conv3d(320, 320, kernel_size=(1, 3, 3), stride=(1, 1, 1), padding=(0, 1, 1))
                (1): InstanceNorm3d(320, eps=1e-05, momentum=0.1, affine=True, track_running_stats=False)
                (2): LeakyReLU(negative_slope=0.01, inplace=True)
              )
            )
            (conv2): ConvDropoutNormReLU(
              (conv): Conv3d(320, 320, kernel_size=(1, 3, 3), stride=(1, 1, 1), padding=(0, 1, 1))
              (norm): InstanceNorm3d(320, eps=1e-05, momentum=0.1, affine=True, track_running_stats=False)
              (all_modules): Sequential(
                (0): Conv3d(320, 320, kernel_size=(1, 3, 3), stride=(1, 1, 1), padding=(0, 1, 1))
                (1): InstanceNorm3d(320, eps=1e-05, momentum=0.1, affine=True, track_running_stats=False)
              )
            )
            (nonlin2): LeakyReLU(negative_slope=0.01, inplace=True)
          )
        )
      )
      (5): StackedResidualBlocks(
        (blocks): Sequential(
          (0): BasicBlockD(
            (conv1): ConvDropoutNormReLU(
              (conv): Conv3d(320, 320, kernel_size=(1, 3, 3), stride=(1, 2, 2), padding=(0, 1, 1))
              (norm): InstanceNorm3d(320, eps=1e-05, momentum=0.1, affine=True, track_running_stats=False)
              (nonlin): LeakyReLU(negative_slope=0.01, inplace=True)
              (all_modules): Sequential(
                (0): Conv3d(320, 320, kernel_size=(1, 3, 3), stride=(1, 2, 2), padding=(0, 1, 1))
                (1): InstanceNorm3d(320, eps=1e-05, momentum=0.1, affine=True, track_running_stats=False)
                (2): LeakyReLU(negative_slope=0.01, inplace=True)
              )
            )
            (conv2): ConvDropoutNormReLU(
              (conv): Conv3d(320, 320, kernel_size=(1, 3, 3), stride=(1, 1, 1), padding=(0, 1, 1))
              (norm): InstanceNorm3d(320, eps=1e-05, momentum=0.1, affine=True, track_running_stats=False)
              (all_modules): Sequential(
                (0): Conv3d(320, 320, kernel_size=(1, 3, 3), stride=(1, 1, 1), padding=(0, 1, 1))
                (1): InstanceNorm3d(320, eps=1e-05, momentum=0.1, affine=True, track_running_stats=False)
              )
            )
            (nonlin2): LeakyReLU(negative_slope=0.01, inplace=True)
            (skip): Sequential(
              (0): AvgPool3d(kernel_size=[1, 2, 2], stride=[1, 2, 2], padding=0)
            )
          )
          (1): BasicBlockD(
            (conv1): ConvDropoutNormReLU(
              (conv): Conv3d(320, 320, kernel_size=(1, 3, 3), stride=(1, 1, 1), padding=(0, 1, 1))
              (norm): InstanceNorm3d(320, eps=1e-05, momentum=0.1, affine=True, track_running_stats=False)
              (nonlin): LeakyReLU(negative_slope=0.01, inplace=True)
              (all_modules): Sequential(
                (0): Conv3d(320, 320, kernel_size=(1, 3, 3), stride=(1, 1, 1), padding=(0, 1, 1))
                (1): InstanceNorm3d(320, eps=1e-05, momentum=0.1, affine=True, track_running_stats=False)
                (2): LeakyReLU(negative_slope=0.01, inplace=True)
              )
            )
            (conv2): ConvDropoutNormReLU(
              (conv): Conv3d(320, 320, kernel_size=(1, 3, 3), stride=(1, 1, 1), padding=(0, 1, 1))
              (norm): InstanceNorm3d(320, eps=1e-05, momentum=0.1, affine=True, track_running_stats=False)
              (all_modules): Sequential(
                (0): Conv3d(320, 320, kernel_size=(1, 3, 3), stride=(1, 1, 1), padding=(0, 1, 1))
                (1): InstanceNorm3d(320, eps=1e-05, momentum=0.1, affine=True, track_running_stats=False)
              )
            )
            (nonlin2): LeakyReLU(negative_slope=0.01, inplace=True)
          )
        )
      )
    )
    (mamba_layers): ModuleList(
      (0): MambaLayer(
        (norm): LayerNorm((32,), eps=1e-05, elementwise_affine=True)
        (mamba): Mamba(
          (in_proj): Linear(in_features=32, out_features=128, bias=False)
          (conv1d): Conv1d(64, 64, kernel_size=(4,), stride=(1,), padding=(3,), groups=64)
          (act): SiLU()
          (x_proj): Linear(in_features=64, out_features=34, bias=False)
          (dt_proj): Linear(in_features=2, out_features=64, bias=True)
          (out_proj): Linear(in_features=64, out_features=32, bias=False)
        )
      )
      (1): MambaLayer(
        (norm): LayerNorm((64,), eps=1e-05, elementwise_affine=True)
        (mamba): Mamba(
          (in_proj): Linear(in_features=64, out_features=256, bias=False)
          (conv1d): Conv1d(128, 128, kernel_size=(4,), stride=(1,), padding=(3,), groups=128)
          (act): SiLU()
          (x_proj): Linear(in_features=128, out_features=36, bias=False)
          (dt_proj): Linear(in_features=4, out_features=128, bias=True)
          (out_proj): Linear(in_features=128, out_features=64, bias=False)
        )
      )
      (2): MambaLayer(
        (norm): LayerNorm((128,), eps=1e-05, elementwise_affine=True)
        (mamba): Mamba(
          (in_proj): Linear(in_features=128, out_features=512, bias=False)
          (conv1d): Conv1d(256, 256, kernel_size=(4,), stride=(1,), padding=(3,), groups=256)
          (act): SiLU()
          (x_proj): Linear(in_features=256, out_features=40, bias=False)
          (dt_proj): Linear(in_features=8, out_features=256, bias=True)
          (out_proj): Linear(in_features=256, out_features=128, bias=False)
        )
      )
      (3): MambaLayer(
        (norm): LayerNorm((256,), eps=1e-05, elementwise_affine=True)
        (mamba): Mamba(
          (in_proj): Linear(in_features=256, out_features=1024, bias=False)
          (conv1d): Conv1d(512, 512, kernel_size=(4,), stride=(1,), padding=(3,), groups=512)
          (act): SiLU()
          (x_proj): Linear(in_features=512, out_features=48, bias=False)
          (dt_proj): Linear(in_features=16, out_features=512, bias=True)
          (out_proj): Linear(in_features=512, out_features=256, bias=False)
        )
      )
      (4-5): 2 x MambaLayer(
        (norm): LayerNorm((320,), eps=1e-05, elementwise_affine=True)
        (mamba): Mamba(
          (in_proj): Linear(in_features=320, out_features=1280, bias=False)
          (conv1d): Conv1d(640, 640, kernel_size=(4,), stride=(1,), padding=(3,), groups=640)
          (act): SiLU()
          (x_proj): Linear(in_features=640, out_features=52, bias=False)
          (dt_proj): Linear(in_features=20, out_features=640, bias=True)
          (out_proj): Linear(in_features=640, out_features=320, bias=False)
        )
      )
    )
  )
  (decoder): UNetResDecoder(
    (encoder): ResidualMambaEncoder(
      (stem): StackedConvBlocks(
        (convs): Sequential(
          (0): ConvDropoutNormReLU(
            (conv): Conv3d(3, 32, kernel_size=(1, 3, 3), stride=(1, 1, 1), padding=(0, 1, 1))
            (norm): InstanceNorm3d(32, eps=1e-05, momentum=0.1, affine=True, track_running_stats=False)
            (nonlin): LeakyReLU(negative_slope=0.01, inplace=True)
            (all_modules): Sequential(
              (0): Conv3d(3, 32, kernel_size=(1, 3, 3), stride=(1, 1, 1), padding=(0, 1, 1))
              (1): InstanceNorm3d(32, eps=1e-05, momentum=0.1, affine=True, track_running_stats=False)
              (2): LeakyReLU(negative_slope=0.01, inplace=True)
            )
          )
        )
      )
      (stages): ModuleList(
        (0): StackedResidualBlocks(
          (blocks): Sequential(
            (0): BasicBlockD(
              (conv1): ConvDropoutNormReLU(
                (conv): Conv3d(32, 32, kernel_size=(1, 3, 3), stride=(1, 1, 1), padding=(0, 1, 1))
                (norm): InstanceNorm3d(32, eps=1e-05, momentum=0.1, affine=True, track_running_stats=False)
                (nonlin): LeakyReLU(negative_slope=0.01, inplace=True)
                (all_modules): Sequential(
                  (0): Conv3d(32, 32, kernel_size=(1, 3, 3), stride=(1, 1, 1), padding=(0, 1, 1))
                  (1): InstanceNorm3d(32, eps=1e-05, momentum=0.1, affine=True, track_running_stats=False)
                  (2): LeakyReLU(negative_slope=0.01, inplace=True)
                )
              )
              (conv2): ConvDropoutNormReLU(
                (conv): Conv3d(32, 32, kernel_size=(1, 3, 3), stride=(1, 1, 1), padding=(0, 1, 1))
                (norm): InstanceNorm3d(32, eps=1e-05, momentum=0.1, affine=True, track_running_stats=False)
                (all_modules): Sequential(
                  (0): Conv3d(32, 32, kernel_size=(1, 3, 3), stride=(1, 1, 1), padding=(0, 1, 1))
                  (1): InstanceNorm3d(32, eps=1e-05, momentum=0.1, affine=True, track_running_stats=False)
                )
              )
              (nonlin2): LeakyReLU(negative_slope=0.01, inplace=True)
            )
            (1): BasicBlockD(
              (conv1): ConvDropoutNormReLU(
                (conv): Conv3d(32, 32, kernel_size=(1, 3, 3), stride=(1, 1, 1), padding=(0, 1, 1))
                (norm): InstanceNorm3d(32, eps=1e-05, momentum=0.1, affine=True, track_running_stats=False)
                (nonlin): LeakyReLU(negative_slope=0.01, inplace=True)
                (all_modules): Sequential(
                  (0): Conv3d(32, 32, kernel_size=(1, 3, 3), stride=(1, 1, 1), padding=(0, 1, 1))
                  (1): InstanceNorm3d(32, eps=1e-05, momentum=0.1, affine=True, track_running_stats=False)
                  (2): LeakyReLU(negative_slope=0.01, inplace=True)
                )
              )
              (conv2): ConvDropoutNormReLU(
                (conv): Conv3d(32, 32, kernel_size=(1, 3, 3), stride=(1, 1, 1), padding=(0, 1, 1))
                (norm): InstanceNorm3d(32, eps=1e-05, momentum=0.1, affine=True, track_running_stats=False)
                (all_modules): Sequential(
                  (0): Conv3d(32, 32, kernel_size=(1, 3, 3), stride=(1, 1, 1), padding=(0, 1, 1))
                  (1): InstanceNorm3d(32, eps=1e-05, momentum=0.1, affine=True, track_running_stats=False)
                )
              )
              (nonlin2): LeakyReLU(negative_slope=0.01, inplace=True)
            )
          )
        )
        (1): StackedResidualBlocks(
          (blocks): Sequential(
            (0): BasicBlockD(
              (conv1): ConvDropoutNormReLU(
                (conv): Conv3d(32, 64, kernel_size=(1, 3, 3), stride=(1, 2, 2), padding=(0, 1, 1))
                (norm): InstanceNorm3d(64, eps=1e-05, momentum=0.1, affine=True, track_running_stats=False)
                (nonlin): LeakyReLU(negative_slope=0.01, inplace=True)
                (all_modules): Sequential(
                  (0): Conv3d(32, 64, kernel_size=(1, 3, 3), stride=(1, 2, 2), padding=(0, 1, 1))
                  (1): InstanceNorm3d(64, eps=1e-05, momentum=0.1, affine=True, track_running_stats=False)
                  (2): LeakyReLU(negative_slope=0.01, inplace=True)
                )
              )
              (conv2): ConvDropoutNormReLU(
                (conv): Conv3d(64, 64, kernel_size=(1, 3, 3), stride=(1, 1, 1), padding=(0, 1, 1))
                (norm): InstanceNorm3d(64, eps=1e-05, momentum=0.1, affine=True, track_running_stats=False)
                (all_modules): Sequential(
                  (0): Conv3d(64, 64, kernel_size=(1, 3, 3), stride=(1, 1, 1), padding=(0, 1, 1))
                  (1): InstanceNorm3d(64, eps=1e-05, momentum=0.1, affine=True, track_running_stats=False)
                )
              )
              (nonlin2): LeakyReLU(negative_slope=0.01, inplace=True)
              (skip): Sequential(
                (0): AvgPool3d(kernel_size=[1, 2, 2], stride=[1, 2, 2], padding=0)
                (1): ConvDropoutNormReLU(
                  (conv): Conv3d(32, 64, kernel_size=(1, 1, 1), stride=(1, 1, 1), bias=False)
                  (norm): InstanceNorm3d(64, eps=1e-05, momentum=0.1, affine=True, track_running_stats=False)
                  (all_modules): Sequential(
                    (0): Conv3d(32, 64, kernel_size=(1, 1, 1), stride=(1, 1, 1), bias=False)
                    (1): InstanceNorm3d(64, eps=1e-05, momentum=0.1, affine=True, track_running_stats=False)
                  )
                )
              )
            )
            (1): BasicBlockD(
              (conv1): ConvDropoutNormReLU(
                (conv): Conv3d(64, 64, kernel_size=(1, 3, 3), stride=(1, 1, 1), padding=(0, 1, 1))
                (norm): InstanceNorm3d(64, eps=1e-05, momentum=0.1, affine=True, track_running_stats=False)
                (nonlin): LeakyReLU(negative_slope=0.01, inplace=True)
                (all_modules): Sequential(
                  (0): Conv3d(64, 64, kernel_size=(1, 3, 3), stride=(1, 1, 1), padding=(0, 1, 1))
                  (1): InstanceNorm3d(64, eps=1e-05, momentum=0.1, affine=True, track_running_stats=False)
                  (2): LeakyReLU(negative_slope=0.01, inplace=True)
                )
              )
              (conv2): ConvDropoutNormReLU(
                (conv): Conv3d(64, 64, kernel_size=(1, 3, 3), stride=(1, 1, 1), padding=(0, 1, 1))
                (norm): InstanceNorm3d(64, eps=1e-05, momentum=0.1, affine=True, track_running_stats=False)
                (all_modules): Sequential(
                  (0): Conv3d(64, 64, kernel_size=(1, 3, 3), stride=(1, 1, 1), padding=(0, 1, 1))
                  (1): InstanceNorm3d(64, eps=1e-05, momentum=0.1, affine=True, track_running_stats=False)
                )
              )
              (nonlin2): LeakyReLU(negative_slope=0.01, inplace=True)
            )
          )
        )
        (2): StackedResidualBlocks(
          (blocks): Sequential(
            (0): BasicBlockD(
              (conv1): ConvDropoutNormReLU(
                (conv): Conv3d(64, 128, kernel_size=(1, 3, 3), stride=(1, 2, 2), padding=(0, 1, 1))
                (norm): InstanceNorm3d(128, eps=1e-05, momentum=0.1, affine=True, track_running_stats=False)
                (nonlin): LeakyReLU(negative_slope=0.01, inplace=True)
                (all_modules): Sequential(
                  (0): Conv3d(64, 128, kernel_size=(1, 3, 3), stride=(1, 2, 2), padding=(0, 1, 1))
                  (1): InstanceNorm3d(128, eps=1e-05, momentum=0.1, affine=True, track_running_stats=False)
                  (2): LeakyReLU(negative_slope=0.01, inplace=True)
                )
              )
              (conv2): ConvDropoutNormReLU(
                (conv): Conv3d(128, 128, kernel_size=(1, 3, 3), stride=(1, 1, 1), padding=(0, 1, 1))
                (norm): InstanceNorm3d(128, eps=1e-05, momentum=0.1, affine=True, track_running_stats=False)
                (all_modules): Sequential(
                  (0): Conv3d(128, 128, kernel_size=(1, 3, 3), stride=(1, 1, 1), padding=(0, 1, 1))
                  (1): InstanceNorm3d(128, eps=1e-05, momentum=0.1, affine=True, track_running_stats=False)
                )
              )
              (nonlin2): LeakyReLU(negative_slope=0.01, inplace=True)
              (skip): Sequential(
                (0): AvgPool3d(kernel_size=[1, 2, 2], stride=[1, 2, 2], padding=0)
                (1): ConvDropoutNormReLU(
                  (conv): Conv3d(64, 128, kernel_size=(1, 1, 1), stride=(1, 1, 1), bias=False)
                  (norm): InstanceNorm3d(128, eps=1e-05, momentum=0.1, affine=True, track_running_stats=False)
                  (all_modules): Sequential(
                    (0): Conv3d(64, 128, kernel_size=(1, 1, 1), stride=(1, 1, 1), bias=False)
                    (1): InstanceNorm3d(128, eps=1e-05, momentum=0.1, affine=True, track_running_stats=False)
                  )
                )
              )
            )
            (1): BasicBlockD(
              (conv1): ConvDropoutNormReLU(
                (conv): Conv3d(128, 128, kernel_size=(1, 3, 3), stride=(1, 1, 1), padding=(0, 1, 1))
                (norm): InstanceNorm3d(128, eps=1e-05, momentum=0.1, affine=True, track_running_stats=False)
                (nonlin): LeakyReLU(negative_slope=0.01, inplace=True)
                (all_modules): Sequential(
                  (0): Conv3d(128, 128, kernel_size=(1, 3, 3), stride=(1, 1, 1), padding=(0, 1, 1))
                  (1): InstanceNorm3d(128, eps=1e-05, momentum=0.1, affine=True, track_running_stats=False)
                  (2): LeakyReLU(negative_slope=0.01, inplace=True)
                )
              )
              (conv2): ConvDropoutNormReLU(
                (conv): Conv3d(128, 128, kernel_size=(1, 3, 3), stride=(1, 1, 1), padding=(0, 1, 1))
                (norm): InstanceNorm3d(128, eps=1e-05, momentum=0.1, affine=True, track_running_stats=False)
                (all_modules): Sequential(
                  (0): Conv3d(128, 128, kernel_size=(1, 3, 3), stride=(1, 1, 1), padding=(0, 1, 1))
                  (1): InstanceNorm3d(128, eps=1e-05, momentum=0.1, affine=True, track_running_stats=False)
                )
              )
              (nonlin2): LeakyReLU(negative_slope=0.01, inplace=True)
            )
          )
        )
        (3): StackedResidualBlocks(
          (blocks): Sequential(
            (0): BasicBlockD(
              (conv1): ConvDropoutNormReLU(
                (conv): Conv3d(128, 256, kernel_size=(1, 3, 3), stride=(1, 2, 2), padding=(0, 1, 1))
                (norm): InstanceNorm3d(256, eps=1e-05, momentum=0.1, affine=True, track_running_stats=False)
                (nonlin): LeakyReLU(negative_slope=0.01, inplace=True)
                (all_modules): Sequential(
                  (0): Conv3d(128, 256, kernel_size=(1, 3, 3), stride=(1, 2, 2), padding=(0, 1, 1))
                  (1): InstanceNorm3d(256, eps=1e-05, momentum=0.1, affine=True, track_running_stats=False)
                  (2): LeakyReLU(negative_slope=0.01, inplace=True)
                )
              )
              (conv2): ConvDropoutNormReLU(
                (conv): Conv3d(256, 256, kernel_size=(1, 3, 3), stride=(1, 1, 1), padding=(0, 1, 1))
                (norm): InstanceNorm3d(256, eps=1e-05, momentum=0.1, affine=True, track_running_stats=False)
                (all_modules): Sequential(
                  (0): Conv3d(256, 256, kernel_size=(1, 3, 3), stride=(1, 1, 1), padding=(0, 1, 1))
                  (1): InstanceNorm3d(256, eps=1e-05, momentum=0.1, affine=True, track_running_stats=False)
                )
              )
              (nonlin2): LeakyReLU(negative_slope=0.01, inplace=True)
              (skip): Sequential(
                (0): AvgPool3d(kernel_size=[1, 2, 2], stride=[1, 2, 2], padding=0)
                (1): ConvDropoutNormReLU(
                  (conv): Conv3d(128, 256, kernel_size=(1, 1, 1), stride=(1, 1, 1), bias=False)
                  (norm): InstanceNorm3d(256, eps=1e-05, momentum=0.1, affine=True, track_running_stats=False)
                  (all_modules): Sequential(
                    (0): Conv3d(128, 256, kernel_size=(1, 1, 1), stride=(1, 1, 1), bias=False)
                    (1): InstanceNorm3d(256, eps=1e-05, momentum=0.1, affine=True, track_running_stats=False)
                  )
                )
              )
            )
            (1): BasicBlockD(
              (conv1): ConvDropoutNormReLU(
                (conv): Conv3d(256, 256, kernel_size=(1, 3, 3), stride=(1, 1, 1), padding=(0, 1, 1))
                (norm): InstanceNorm3d(256, eps=1e-05, momentum=0.1, affine=True, track_running_stats=False)
                (nonlin): LeakyReLU(negative_slope=0.01, inplace=True)
                (all_modules): Sequential(
                  (0): Conv3d(256, 256, kernel_size=(1, 3, 3), stride=(1, 1, 1), padding=(0, 1, 1))
                  (1): InstanceNorm3d(256, eps=1e-05, momentum=0.1, affine=True, track_running_stats=False)
                  (2): LeakyReLU(negative_slope=0.01, inplace=True)
                )
              )
              (conv2): ConvDropoutNormReLU(
                (conv): Conv3d(256, 256, kernel_size=(1, 3, 3), stride=(1, 1, 1), padding=(0, 1, 1))
                (norm): InstanceNorm3d(256, eps=1e-05, momentum=0.1, affine=True, track_running_stats=False)
                (all_modules): Sequential(
                  (0): Conv3d(256, 256, kernel_size=(1, 3, 3), stride=(1, 1, 1), padding=(0, 1, 1))
                  (1): InstanceNorm3d(256, eps=1e-05, momentum=0.1, affine=True, track_running_stats=False)
                )
              )
              (nonlin2): LeakyReLU(negative_slope=0.01, inplace=True)
            )
          )
        )
        (4): StackedResidualBlocks(
          (blocks): Sequential(
            (0): BasicBlockD(
              (conv1): ConvDropoutNormReLU(
                (conv): Conv3d(256, 320, kernel_size=(1, 3, 3), stride=(1, 2, 2), padding=(0, 1, 1))
                (norm): InstanceNorm3d(320, eps=1e-05, momentum=0.1, affine=True, track_running_stats=False)
                (nonlin): LeakyReLU(negative_slope=0.01, inplace=True)
                (all_modules): Sequential(
                  (0): Conv3d(256, 320, kernel_size=(1, 3, 3), stride=(1, 2, 2), padding=(0, 1, 1))
                  (1): InstanceNorm3d(320, eps=1e-05, momentum=0.1, affine=True, track_running_stats=False)
                  (2): LeakyReLU(negative_slope=0.01, inplace=True)
                )
              )
              (conv2): ConvDropoutNormReLU(
                (conv): Conv3d(320, 320, kernel_size=(1, 3, 3), stride=(1, 1, 1), padding=(0, 1, 1))
                (norm): InstanceNorm3d(320, eps=1e-05, momentum=0.1, affine=True, track_running_stats=False)
                (all_modules): Sequential(
                  (0): Conv3d(320, 320, kernel_size=(1, 3, 3), stride=(1, 1, 1), padding=(0, 1, 1))
                  (1): InstanceNorm3d(320, eps=1e-05, momentum=0.1, affine=True, track_running_stats=False)
                )
              )
              (nonlin2): LeakyReLU(negative_slope=0.01, inplace=True)
              (skip): Sequential(
                (0): AvgPool3d(kernel_size=[1, 2, 2], stride=[1, 2, 2], padding=0)
                (1): ConvDropoutNormReLU(
                  (conv): Conv3d(256, 320, kernel_size=(1, 1, 1), stride=(1, 1, 1), bias=False)
                  (norm): InstanceNorm3d(320, eps=1e-05, momentum=0.1, affine=True, track_running_stats=False)
                  (all_modules): Sequential(
                    (0): Conv3d(256, 320, kernel_size=(1, 1, 1), stride=(1, 1, 1), bias=False)
                    (1): InstanceNorm3d(320, eps=1e-05, momentum=0.1, affine=True, track_running_stats=False)
                  )
                )
              )
            )
            (1): BasicBlockD(
              (conv1): ConvDropoutNormReLU(
                (conv): Conv3d(320, 320, kernel_size=(1, 3, 3), stride=(1, 1, 1), padding=(0, 1, 1))
                (norm): InstanceNorm3d(320, eps=1e-05, momentum=0.1, affine=True, track_running_stats=False)
                (nonlin): LeakyReLU(negative_slope=0.01, inplace=True)
                (all_modules): Sequential(
                  (0): Conv3d(320, 320, kernel_size=(1, 3, 3), stride=(1, 1, 1), padding=(0, 1, 1))
                  (1): InstanceNorm3d(320, eps=1e-05, momentum=0.1, affine=True, track_running_stats=False)
                  (2): LeakyReLU(negative_slope=0.01, inplace=True)
                )
              )
              (conv2): ConvDropoutNormReLU(
                (conv): Conv3d(320, 320, kernel_size=(1, 3, 3), stride=(1, 1, 1), padding=(0, 1, 1))
                (norm): InstanceNorm3d(320, eps=1e-05, momentum=0.1, affine=True, track_running_stats=False)
                (all_modules): Sequential(
                  (0): Conv3d(320, 320, kernel_size=(1, 3, 3), stride=(1, 1, 1), padding=(0, 1, 1))
                  (1): InstanceNorm3d(320, eps=1e-05, momentum=0.1, affine=True, track_running_stats=False)
                )
              )
              (nonlin2): LeakyReLU(negative_slope=0.01, inplace=True)
            )
          )
        )
        (5): StackedResidualBlocks(
          (blocks): Sequential(
            (0): BasicBlockD(
              (conv1): ConvDropoutNormReLU(
                (conv): Conv3d(320, 320, kernel_size=(1, 3, 3), stride=(1, 2, 2), padding=(0, 1, 1))
                (norm): InstanceNorm3d(320, eps=1e-05, momentum=0.1, affine=True, track_running_stats=False)
                (nonlin): LeakyReLU(negative_slope=0.01, inplace=True)
                (all_modules): Sequential(
                  (0): Conv3d(320, 320, kernel_size=(1, 3, 3), stride=(1, 2, 2), padding=(0, 1, 1))
                  (1): InstanceNorm3d(320, eps=1e-05, momentum=0.1, affine=True, track_running_stats=False)
                  (2): LeakyReLU(negative_slope=0.01, inplace=True)
                )
              )
              (conv2): ConvDropoutNormReLU(
                (conv): Conv3d(320, 320, kernel_size=(1, 3, 3), stride=(1, 1, 1), padding=(0, 1, 1))
                (norm): InstanceNorm3d(320, eps=1e-05, momentum=0.1, affine=True, track_running_stats=False)
                (all_modules): Sequential(
                  (0): Conv3d(320, 320, kernel_size=(1, 3, 3), stride=(1, 1, 1), padding=(0, 1, 1))
                  (1): InstanceNorm3d(320, eps=1e-05, momentum=0.1, affine=True, track_running_stats=False)
                )
              )
              (nonlin2): LeakyReLU(negative_slope=0.01, inplace=True)
              (skip): Sequential(
                (0): AvgPool3d(kernel_size=[1, 2, 2], stride=[1, 2, 2], padding=0)
              )
            )
            (1): BasicBlockD(
              (conv1): ConvDropoutNormReLU(
                (conv): Conv3d(320, 320, kernel_size=(1, 3, 3), stride=(1, 1, 1), padding=(0, 1, 1))
                (norm): InstanceNorm3d(320, eps=1e-05, momentum=0.1, affine=True, track_running_stats=False)
                (nonlin): LeakyReLU(negative_slope=0.01, inplace=True)
                (all_modules): Sequential(
                  (0): Conv3d(320, 320, kernel_size=(1, 3, 3), stride=(1, 1, 1), padding=(0, 1, 1))
                  (1): InstanceNorm3d(320, eps=1e-05, momentum=0.1, affine=True, track_running_stats=False)
                  (2): LeakyReLU(negative_slope=0.01, inplace=True)
                )
              )
              (conv2): ConvDropoutNormReLU(
                (conv): Conv3d(320, 320, kernel_size=(1, 3, 3), stride=(1, 1, 1), padding=(0, 1, 1))
                (norm): InstanceNorm3d(320, eps=1e-05, momentum=0.1, affine=True, track_running_stats=False)
                (all_modules): Sequential(
                  (0): Conv3d(320, 320, kernel_size=(1, 3, 3), stride=(1, 1, 1), padding=(0, 1, 1))
                  (1): InstanceNorm3d(320, eps=1e-05, momentum=0.1, affine=True, track_running_stats=False)
                )
              )
              (nonlin2): LeakyReLU(negative_slope=0.01, inplace=True)
            )
          )
        )
      )
      (mamba_layers): ModuleList(
        (0): MambaLayer(
          (norm): LayerNorm((32,), eps=1e-05, elementwise_affine=True)
          (mamba): Mamba(
            (in_proj): Linear(in_features=32, out_features=128, bias=False)
            (conv1d): Conv1d(64, 64, kernel_size=(4,), stride=(1,), padding=(3,), groups=64)
            (act): SiLU()
            (x_proj): Linear(in_features=64, out_features=34, bias=False)
            (dt_proj): Linear(in_features=2, out_features=64, bias=True)
            (out_proj): Linear(in_features=64, out_features=32, bias=False)
          )
        )
        (1): MambaLayer(
          (norm): LayerNorm((64,), eps=1e-05, elementwise_affine=True)
          (mamba): Mamba(
            (in_proj): Linear(in_features=64, out_features=256, bias=False)
            (conv1d): Conv1d(128, 128, kernel_size=(4,), stride=(1,), padding=(3,), groups=128)
            (act): SiLU()
            (x_proj): Linear(in_features=128, out_features=36, bias=False)
            (dt_proj): Linear(in_features=4, out_features=128, bias=True)
            (out_proj): Linear(in_features=128, out_features=64, bias=False)
          )
        )
        (2): MambaLayer(
          (norm): LayerNorm((128,), eps=1e-05, elementwise_affine=True)
          (mamba): Mamba(
            (in_proj): Linear(in_features=128, out_features=512, bias=False)
            (conv1d): Conv1d(256, 256, kernel_size=(4,), stride=(1,), padding=(3,), groups=256)
            (act): SiLU()
            (x_proj): Linear(in_features=256, out_features=40, bias=False)
            (dt_proj): Linear(in_features=8, out_features=256, bias=True)
            (out_proj): Linear(in_features=256, out_features=128, bias=False)
          )
        )
        (3): MambaLayer(
          (norm): LayerNorm((256,), eps=1e-05, elementwise_affine=True)
          (mamba): Mamba(
            (in_proj): Linear(in_features=256, out_features=1024, bias=False)
            (conv1d): Conv1d(512, 512, kernel_size=(4,), stride=(1,), padding=(3,), groups=512)
            (act): SiLU()
            (x_proj): Linear(in_features=512, out_features=48, bias=False)
            (dt_proj): Linear(in_features=16, out_features=512, bias=True)
            (out_proj): Linear(in_features=512, out_features=256, bias=False)
          )
        )
        (4-5): 2 x MambaLayer(
          (norm): LayerNorm((320,), eps=1e-05, elementwise_affine=True)
          (mamba): Mamba(
            (in_proj): Linear(in_features=320, out_features=1280, bias=False)
            (conv1d): Conv1d(640, 640, kernel_size=(4,), stride=(1,), padding=(3,), groups=640)
            (act): SiLU()
            (x_proj): Linear(in_features=640, out_features=52, bias=False)
            (dt_proj): Linear(in_features=20, out_features=640, bias=True)
            (out_proj): Linear(in_features=640, out_features=320, bias=False)
          )
        )
      )
    )
    (lzz_layers): ModuleList(
      (0): ModuleList(
        (0): StackedResidualBlocks(
          (blocks): Sequential(
            (0): BasicBlockD(
              (conv1): ConvDropoutNormReLU(
                (conv): Conv3d(96, 96, kernel_size=(3, 3, 3), stride=(2, 2, 2), padding=(1, 1, 1))
                (norm): InstanceNorm3d(96, eps=1e-05, momentum=0.1, affine=True, track_running_stats=False)
                (nonlin): LeakyReLU(negative_slope=0.01, inplace=True)
                (all_modules): Sequential(
                  (0): Conv3d(96, 96, kernel_size=(3, 3, 3), stride=(2, 2, 2), padding=(1, 1, 1))
                  (1): InstanceNorm3d(96, eps=1e-05, momentum=0.1, affine=True, track_running_stats=False)
                  (2): LeakyReLU(negative_slope=0.01, inplace=True)
                )
              )
              (conv2): ConvDropoutNormReLU(
                (conv): Conv3d(96, 96, kernel_size=(3, 3, 3), stride=(1, 1, 1), padding=(1, 1, 1))
                (norm): InstanceNorm3d(96, eps=1e-05, momentum=0.1, affine=True, track_running_stats=False)
                (all_modules): Sequential(
                  (0): Conv3d(96, 96, kernel_size=(3, 3, 3), stride=(1, 1, 1), padding=(1, 1, 1))
                  (1): InstanceNorm3d(96, eps=1e-05, momentum=0.1, affine=True, track_running_stats=False)
                )
              )
              (nonlin2): LeakyReLU(negative_slope=0.01, inplace=True)
              (skip): Sequential(
                (0): AvgPool3d(kernel_size=(2, 2, 2), stride=(2, 2, 2), padding=0)
              )
            )
            (1): BasicBlockD(
              (conv1): ConvDropoutNormReLU(
                (conv): Conv3d(96, 96, kernel_size=(3, 3, 3), stride=(1, 1, 1), padding=(1, 1, 1))
                (norm): InstanceNorm3d(96, eps=1e-05, momentum=0.1, affine=True, track_running_stats=False)
                (nonlin): LeakyReLU(negative_slope=0.01, inplace=True)
                (all_modules): Sequential(
                  (0): Conv3d(96, 96, kernel_size=(3, 3, 3), stride=(1, 1, 1), padding=(1, 1, 1))
                  (1): InstanceNorm3d(96, eps=1e-05, momentum=0.1, affine=True, track_running_stats=False)
                  (2): LeakyReLU(negative_slope=0.01, inplace=True)
                )
              )
              (conv2): ConvDropoutNormReLU(
                (conv): Conv3d(96, 96, kernel_size=(3, 3, 3), stride=(1, 1, 1), padding=(1, 1, 1))
                (norm): InstanceNorm3d(96, eps=1e-05, momentum=0.1, affine=True, track_running_stats=False)
                (all_modules): Sequential(
                  (0): Conv3d(96, 96, kernel_size=(3, 3, 3), stride=(1, 1, 1), padding=(1, 1, 1))
                  (1): InstanceNorm3d(96, eps=1e-05, momentum=0.1, affine=True, track_running_stats=False)
                )
              )
              (nonlin2): LeakyReLU(negative_slope=0.01, inplace=True)
            )
          )
        )
        (1-2): 2 x StackedResidualBlocks(
          (blocks): Sequential(
            (0): BasicBlockD(
              (conv1): ConvDropoutNormReLU(
                (conv): Conv3d(96, 96, kernel_size=(3, 1, 1), stride=(2, 1, 1), padding=(1, 0, 0))
                (norm): InstanceNorm3d(96, eps=1e-05, momentum=0.1, affine=True, track_running_stats=False)
                (nonlin): LeakyReLU(negative_slope=0.01, inplace=True)
                (all_modules): Sequential(
                  (0): Conv3d(96, 96, kernel_size=(3, 1, 1), stride=(2, 1, 1), padding=(1, 0, 0))
                  (1): InstanceNorm3d(96, eps=1e-05, momentum=0.1, affine=True, track_running_stats=False)
                  (2): LeakyReLU(negative_slope=0.01, inplace=True)
                )
              )
              (conv2): ConvDropoutNormReLU(
                (conv): Conv3d(96, 96, kernel_size=(3, 1, 1), stride=(1, 1, 1), padding=(1, 0, 0))
                (norm): InstanceNorm3d(96, eps=1e-05, momentum=0.1, affine=True, track_running_stats=False)
                (all_modules): Sequential(
                  (0): Conv3d(96, 96, kernel_size=(3, 1, 1), stride=(1, 1, 1), padding=(1, 0, 0))
                  (1): InstanceNorm3d(96, eps=1e-05, momentum=0.1, affine=True, track_running_stats=False)
                )
              )
              (nonlin2): LeakyReLU(negative_slope=0.01, inplace=True)
              (skip): Sequential(
                (0): AvgPool3d(kernel_size=(2, 1, 1), stride=(2, 1, 1), padding=0)
              )
            )
            (1): BasicBlockD(
              (conv1): ConvDropoutNormReLU(
                (conv): Conv3d(96, 96, kernel_size=(3, 1, 1), stride=(1, 1, 1), padding=(1, 0, 0))
                (norm): InstanceNorm3d(96, eps=1e-05, momentum=0.1, affine=True, track_running_stats=False)
                (nonlin): LeakyReLU(negative_slope=0.01, inplace=True)
                (all_modules): Sequential(
                  (0): Conv3d(96, 96, kernel_size=(3, 1, 1), stride=(1, 1, 1), padding=(1, 0, 0))
                  (1): InstanceNorm3d(96, eps=1e-05, momentum=0.1, affine=True, track_running_stats=False)
                  (2): LeakyReLU(negative_slope=0.01, inplace=True)
                )
              )
              (conv2): ConvDropoutNormReLU(
                (conv): Conv3d(96, 96, kernel_size=(3, 1, 1), stride=(1, 1, 1), padding=(1, 0, 0))
                (norm): InstanceNorm3d(96, eps=1e-05, momentum=0.1, affine=True, track_running_stats=False)
                (all_modules): Sequential(
                  (0): Conv3d(96, 96, kernel_size=(3, 1, 1), stride=(1, 1, 1), padding=(1, 0, 0))
                  (1): InstanceNorm3d(96, eps=1e-05, momentum=0.1, affine=True, track_running_stats=False)
                )
              )
              (nonlin2): LeakyReLU(negative_slope=0.01, inplace=True)
            )
          )
        )
      )
    )
    (lzz_fc): ModuleList(
      (0): ModuleList(
        (0): Sequential(
          (0): Dropout(p=0.1, inplace=False)
          (1): Linear(in_features=160, out_features=80, bias=True)
          (2): Tanh()
        )
        (1): Sequential(
          (0): Dropout(p=0.1, inplace=False)
          (1): Linear(in_features=80, out_features=1, bias=True)
          (2): Tanh()
        )
      )
    )
  )
)
do_dummy_2d_data_aug: False

Epoch 0
Current learning rate: 0.001
I am local rank 0. 2 GPUs are available. The world size is 2.Setting device to cuda
worker 0 oversample 0.0
worker 0 batch_size 2

#######################################################################
Please cite the following paper when using nnU-Net:
Isensee, F., Jaeger, P. F., Kohl, S. A., Petersen, J., & Maier-Hein, K. H. (2021). nnU-Net: a self-configuring method for deep learning-based biomedical image segmentation. Nature methods, 18(2), 203-211.
#######################################################################

UMambaEnc: UMambaEnc(
  (encoder): ResidualMambaEncoder(
    (stem): StackedConvBlocks(
      (convs): Sequential(
        (0): ConvDropoutNormReLU(
          (conv): Conv3d(3, 32, kernel_size=(1, 3, 3), stride=(1, 1, 1), padding=(0, 1, 1))
          (norm): InstanceNorm3d(32, eps=1e-05, momentum=0.1, affine=True, track_running_stats=False)
          (nonlin): LeakyReLU(negative_slope=0.01, inplace=True)
          (all_modules): Sequential(
            (0): Conv3d(3, 32, kernel_size=(1, 3, 3), stride=(1, 1, 1), padding=(0, 1, 1))
            (1): InstanceNorm3d(32, eps=1e-05, momentum=0.1, affine=True, track_running_stats=False)
            (2): LeakyReLU(negative_slope=0.01, inplace=True)
          )
        )
      )
    )
    (stages): ModuleList(
      (0): StackedResidualBlocks(
        (blocks): Sequential(
          (0): BasicBlockD(
            (conv1): ConvDropoutNormReLU(
              (conv): Conv3d(32, 32, kernel_size=(1, 3, 3), stride=(1, 1, 1), padding=(0, 1, 1))
              (norm): InstanceNorm3d(32, eps=1e-05, momentum=0.1, affine=True, track_running_stats=False)
              (nonlin): LeakyReLU(negative_slope=0.01, inplace=True)
              (all_modules): Sequential(
                (0): Conv3d(32, 32, kernel_size=(1, 3, 3), stride=(1, 1, 1), padding=(0, 1, 1))
                (1): InstanceNorm3d(32, eps=1e-05, momentum=0.1, affine=True, track_running_stats=False)
                (2): LeakyReLU(negative_slope=0.01, inplace=True)
              )
            )
            (conv2): ConvDropoutNormReLU(
              (conv): Conv3d(32, 32, kernel_size=(1, 3, 3), stride=(1, 1, 1), padding=(0, 1, 1))
              (norm): InstanceNorm3d(32, eps=1e-05, momentum=0.1, affine=True, track_running_stats=False)
              (all_modules): Sequential(
                (0): Conv3d(32, 32, kernel_size=(1, 3, 3), stride=(1, 1, 1), padding=(0, 1, 1))
                (1): InstanceNorm3d(32, eps=1e-05, momentum=0.1, affine=True, track_running_stats=False)
              )
            )
            (nonlin2): LeakyReLU(negative_slope=0.01, inplace=True)
          )
          (1): BasicBlockD(
            (conv1): ConvDropoutNormReLU(
              (conv): Conv3d(32, 32, kernel_size=(1, 3, 3), stride=(1, 1, 1), padding=(0, 1, 1))
              (norm): InstanceNorm3d(32, eps=1e-05, momentum=0.1, affine=True, track_running_stats=False)
              (nonlin): LeakyReLU(negative_slope=0.01, inplace=True)
              (all_modules): Sequential(
                (0): Conv3d(32, 32, kernel_size=(1, 3, 3), stride=(1, 1, 1), padding=(0, 1, 1))
                (1): InstanceNorm3d(32, eps=1e-05, momentum=0.1, affine=True, track_running_stats=False)
                (2): LeakyReLU(negative_slope=0.01, inplace=True)
              )
            )
            (conv2): ConvDropoutNormReLU(
              (conv): Conv3d(32, 32, kernel_size=(1, 3, 3), stride=(1, 1, 1), padding=(0, 1, 1))
              (norm): InstanceNorm3d(32, eps=1e-05, momentum=0.1, affine=True, track_running_stats=False)
              (all_modules): Sequential(
                (0): Conv3d(32, 32, kernel_size=(1, 3, 3), stride=(1, 1, 1), padding=(0, 1, 1))
                (1): InstanceNorm3d(32, eps=1e-05, momentum=0.1, affine=True, track_running_stats=False)
              )
            )
            (nonlin2): LeakyReLU(negative_slope=0.01, inplace=True)
          )
        )
      )
      (1): StackedResidualBlocks(
        (blocks): Sequential(
          (0): BasicBlockD(
            (conv1): ConvDropoutNormReLU(
              (conv): Conv3d(32, 64, kernel_size=(1, 3, 3), stride=(1, 2, 2), padding=(0, 1, 1))
              (norm): InstanceNorm3d(64, eps=1e-05, momentum=0.1, affine=True, track_running_stats=False)
              (nonlin): LeakyReLU(negative_slope=0.01, inplace=True)
              (all_modules): Sequential(
                (0): Conv3d(32, 64, kernel_size=(1, 3, 3), stride=(1, 2, 2), padding=(0, 1, 1))
                (1): InstanceNorm3d(64, eps=1e-05, momentum=0.1, affine=True, track_running_stats=False)
                (2): LeakyReLU(negative_slope=0.01, inplace=True)
              )
            )
            (conv2): ConvDropoutNormReLU(
              (conv): Conv3d(64, 64, kernel_size=(1, 3, 3), stride=(1, 1, 1), padding=(0, 1, 1))
              (norm): InstanceNorm3d(64, eps=1e-05, momentum=0.1, affine=True, track_running_stats=False)
              (all_modules): Sequential(
                (0): Conv3d(64, 64, kernel_size=(1, 3, 3), stride=(1, 1, 1), padding=(0, 1, 1))
                (1): InstanceNorm3d(64, eps=1e-05, momentum=0.1, affine=True, track_running_stats=False)
              )
            )
            (nonlin2): LeakyReLU(negative_slope=0.01, inplace=True)
            (skip): Sequential(
              (0): AvgPool3d(kernel_size=[1, 2, 2], stride=[1, 2, 2], padding=0)
              (1): ConvDropoutNormReLU(
                (conv): Conv3d(32, 64, kernel_size=(1, 1, 1), stride=(1, 1, 1), bias=False)
                (norm): InstanceNorm3d(64, eps=1e-05, momentum=0.1, affine=True, track_running_stats=False)
                (all_modules): Sequential(
                  (0): Conv3d(32, 64, kernel_size=(1, 1, 1), stride=(1, 1, 1), bias=False)
                  (1): InstanceNorm3d(64, eps=1e-05, momentum=0.1, affine=True, track_running_stats=False)
                )
              )
            )
          )
          (1): BasicBlockD(
            (conv1): ConvDropoutNormReLU(
              (conv): Conv3d(64, 64, kernel_size=(1, 3, 3), stride=(1, 1, 1), padding=(0, 1, 1))
              (norm): InstanceNorm3d(64, eps=1e-05, momentum=0.1, affine=True, track_running_stats=False)
              (nonlin): LeakyReLU(negative_slope=0.01, inplace=True)
              (all_modules): Sequential(
                (0): Conv3d(64, 64, kernel_size=(1, 3, 3), stride=(1, 1, 1), padding=(0, 1, 1))
                (1): InstanceNorm3d(64, eps=1e-05, momentum=0.1, affine=True, track_running_stats=False)
                (2): LeakyReLU(negative_slope=0.01, inplace=True)
              )
            )
            (conv2): ConvDropoutNormReLU(
              (conv): Conv3d(64, 64, kernel_size=(1, 3, 3), stride=(1, 1, 1), padding=(0, 1, 1))
              (norm): InstanceNorm3d(64, eps=1e-05, momentum=0.1, affine=True, track_running_stats=False)
              (all_modules): Sequential(
                (0): Conv3d(64, 64, kernel_size=(1, 3, 3), stride=(1, 1, 1), padding=(0, 1, 1))
                (1): InstanceNorm3d(64, eps=1e-05, momentum=0.1, affine=True, track_running_stats=False)
              )
            )
            (nonlin2): LeakyReLU(negative_slope=0.01, inplace=True)
          )
        )
      )
      (2): StackedResidualBlocks(
        (blocks): Sequential(
          (0): BasicBlockD(
            (conv1): ConvDropoutNormReLU(
              (conv): Conv3d(64, 128, kernel_size=(1, 3, 3), stride=(1, 2, 2), padding=(0, 1, 1))
              (norm): InstanceNorm3d(128, eps=1e-05, momentum=0.1, affine=True, track_running_stats=False)
              (nonlin): LeakyReLU(negative_slope=0.01, inplace=True)
              (all_modules): Sequential(
                (0): Conv3d(64, 128, kernel_size=(1, 3, 3), stride=(1, 2, 2), padding=(0, 1, 1))
                (1): InstanceNorm3d(128, eps=1e-05, momentum=0.1, affine=True, track_running_stats=False)
                (2): LeakyReLU(negative_slope=0.01, inplace=True)
              )
            )
            (conv2): ConvDropoutNormReLU(
              (conv): Conv3d(128, 128, kernel_size=(1, 3, 3), stride=(1, 1, 1), padding=(0, 1, 1))
              (norm): InstanceNorm3d(128, eps=1e-05, momentum=0.1, affine=True, track_running_stats=False)
              (all_modules): Sequential(
                (0): Conv3d(128, 128, kernel_size=(1, 3, 3), stride=(1, 1, 1), padding=(0, 1, 1))
                (1): InstanceNorm3d(128, eps=1e-05, momentum=0.1, affine=True, track_running_stats=False)
              )
            )
            (nonlin2): LeakyReLU(negative_slope=0.01, inplace=True)
            (skip): Sequential(
              (0): AvgPool3d(kernel_size=[1, 2, 2], stride=[1, 2, 2], padding=0)
              (1): ConvDropoutNormReLU(
                (conv): Conv3d(64, 128, kernel_size=(1, 1, 1), stride=(1, 1, 1), bias=False)
                (norm): InstanceNorm3d(128, eps=1e-05, momentum=0.1, affine=True, track_running_stats=False)
                (all_modules): Sequential(
                  (0): Conv3d(64, 128, kernel_size=(1, 1, 1), stride=(1, 1, 1), bias=False)
                  (1): InstanceNorm3d(128, eps=1e-05, momentum=0.1, affine=True, track_running_stats=False)
                )
              )
            )
          )
          (1): BasicBlockD(
            (conv1): ConvDropoutNormReLU(
              (conv): Conv3d(128, 128, kernel_size=(1, 3, 3), stride=(1, 1, 1), padding=(0, 1, 1))
              (norm): InstanceNorm3d(128, eps=1e-05, momentum=0.1, affine=True, track_running_stats=False)
              (nonlin): LeakyReLU(negative_slope=0.01, inplace=True)
              (all_modules): Sequential(
                (0): Conv3d(128, 128, kernel_size=(1, 3, 3), stride=(1, 1, 1), padding=(0, 1, 1))
                (1): InstanceNorm3d(128, eps=1e-05, momentum=0.1, affine=True, track_running_stats=False)
                (2): LeakyReLU(negative_slope=0.01, inplace=True)
              )
            )
            (conv2): ConvDropoutNormReLU(
              (conv): Conv3d(128, 128, kernel_size=(1, 3, 3), stride=(1, 1, 1), padding=(0, 1, 1))
              (norm): InstanceNorm3d(128, eps=1e-05, momentum=0.1, affine=True, track_running_stats=False)
              (all_modules): Sequential(
                (0): Conv3d(128, 128, kernel_size=(1, 3, 3), stride=(1, 1, 1), padding=(0, 1, 1))
                (1): InstanceNorm3d(128, eps=1e-05, momentum=0.1, affine=True, track_running_stats=False)
              )
            )
            (nonlin2): LeakyReLU(negative_slope=0.01, inplace=True)
          )
        )
      )
      (3): StackedResidualBlocks(
        (blocks): Sequential(
          (0): BasicBlockD(
            (conv1): ConvDropoutNormReLU(
              (conv): Conv3d(128, 256, kernel_size=(1, 3, 3), stride=(1, 2, 2), padding=(0, 1, 1))
              (norm): InstanceNorm3d(256, eps=1e-05, momentum=0.1, affine=True, track_running_stats=False)
              (nonlin): LeakyReLU(negative_slope=0.01, inplace=True)
              (all_modules): Sequential(
                (0): Conv3d(128, 256, kernel_size=(1, 3, 3), stride=(1, 2, 2), padding=(0, 1, 1))
                (1): InstanceNorm3d(256, eps=1e-05, momentum=0.1, affine=True, track_running_stats=False)
                (2): LeakyReLU(negative_slope=0.01, inplace=True)
              )
            )
            (conv2): ConvDropoutNormReLU(
              (conv): Conv3d(256, 256, kernel_size=(1, 3, 3), stride=(1, 1, 1), padding=(0, 1, 1))
              (norm): InstanceNorm3d(256, eps=1e-05, momentum=0.1, affine=True, track_running_stats=False)
              (all_modules): Sequential(
                (0): Conv3d(256, 256, kernel_size=(1, 3, 3), stride=(1, 1, 1), padding=(0, 1, 1))
                (1): InstanceNorm3d(256, eps=1e-05, momentum=0.1, affine=True, track_running_stats=False)
              )
            )
            (nonlin2): LeakyReLU(negative_slope=0.01, inplace=True)
            (skip): Sequential(
              (0): AvgPool3d(kernel_size=[1, 2, 2], stride=[1, 2, 2], padding=0)
              (1): ConvDropoutNormReLU(
                (conv): Conv3d(128, 256, kernel_size=(1, 1, 1), stride=(1, 1, 1), bias=False)
                (norm): InstanceNorm3d(256, eps=1e-05, momentum=0.1, affine=True, track_running_stats=False)
                (all_modules): Sequential(
                  (0): Conv3d(128, 256, kernel_size=(1, 1, 1), stride=(1, 1, 1), bias=False)
                  (1): InstanceNorm3d(256, eps=1e-05, momentum=0.1, affine=True, track_running_stats=False)
                )
              )
            )
          )
          (1): BasicBlockD(
            (conv1): ConvDropoutNormReLU(
              (conv): Conv3d(256, 256, kernel_size=(1, 3, 3), stride=(1, 1, 1), padding=(0, 1, 1))
              (norm): InstanceNorm3d(256, eps=1e-05, momentum=0.1, affine=True, track_running_stats=False)
              (nonlin): LeakyReLU(negative_slope=0.01, inplace=True)
              (all_modules): Sequential(
                (0): Conv3d(256, 256, kernel_size=(1, 3, 3), stride=(1, 1, 1), padding=(0, 1, 1))
                (1): InstanceNorm3d(256, eps=1e-05, momentum=0.1, affine=True, track_running_stats=False)
                (2): LeakyReLU(negative_slope=0.01, inplace=True)
              )
            )
            (conv2): ConvDropoutNormReLU(
              (conv): Conv3d(256, 256, kernel_size=(1, 3, 3), stride=(1, 1, 1), padding=(0, 1, 1))
              (norm): InstanceNorm3d(256, eps=1e-05, momentum=0.1, affine=True, track_running_stats=False)
              (all_modules): Sequential(
                (0): Conv3d(256, 256, kernel_size=(1, 3, 3), stride=(1, 1, 1), padding=(0, 1, 1))
                (1): InstanceNorm3d(256, eps=1e-05, momentum=0.1, affine=True, track_running_stats=False)
              )
            )
            (nonlin2): LeakyReLU(negative_slope=0.01, inplace=True)
          )
        )
      )
      (4): StackedResidualBlocks(
        (blocks): Sequential(
          (0): BasicBlockD(
            (conv1): ConvDropoutNormReLU(
              (conv): Conv3d(256, 320, kernel_size=(1, 3, 3), stride=(1, 2, 2), padding=(0, 1, 1))
              (norm): InstanceNorm3d(320, eps=1e-05, momentum=0.1, affine=True, track_running_stats=False)
              (nonlin): LeakyReLU(negative_slope=0.01, inplace=True)
              (all_modules): Sequential(
                (0): Conv3d(256, 320, kernel_size=(1, 3, 3), stride=(1, 2, 2), padding=(0, 1, 1))
                (1): InstanceNorm3d(320, eps=1e-05, momentum=0.1, affine=True, track_running_stats=False)
                (2): LeakyReLU(negative_slope=0.01, inplace=True)
              )
            )
            (conv2): ConvDropoutNormReLU(
              (conv): Conv3d(320, 320, kernel_size=(1, 3, 3), stride=(1, 1, 1), padding=(0, 1, 1))
              (norm): InstanceNorm3d(320, eps=1e-05, momentum=0.1, affine=True, track_running_stats=False)
              (all_modules): Sequential(
                (0): Conv3d(320, 320, kernel_size=(1, 3, 3), stride=(1, 1, 1), padding=(0, 1, 1))
                (1): InstanceNorm3d(320, eps=1e-05, momentum=0.1, affine=True, track_running_stats=False)
              )
            )
            (nonlin2): LeakyReLU(negative_slope=0.01, inplace=True)
            (skip): Sequential(
              (0): AvgPool3d(kernel_size=[1, 2, 2], stride=[1, 2, 2], padding=0)
              (1): ConvDropoutNormReLU(
                (conv): Conv3d(256, 320, kernel_size=(1, 1, 1), stride=(1, 1, 1), bias=False)
                (norm): InstanceNorm3d(320, eps=1e-05, momentum=0.1, affine=True, track_running_stats=False)
                (all_modules): Sequential(
                  (0): Conv3d(256, 320, kernel_size=(1, 1, 1), stride=(1, 1, 1), bias=False)
                  (1): InstanceNorm3d(320, eps=1e-05, momentum=0.1, affine=True, track_running_stats=False)
                )
              )
            )
          )
          (1): BasicBlockD(
            (conv1): ConvDropoutNormReLU(
              (conv): Conv3d(320, 320, kernel_size=(1, 3, 3), stride=(1, 1, 1), padding=(0, 1, 1))
              (norm): InstanceNorm3d(320, eps=1e-05, momentum=0.1, affine=True, track_running_stats=False)
              (nonlin): LeakyReLU(negative_slope=0.01, inplace=True)
              (all_modules): Sequential(
                (0): Conv3d(320, 320, kernel_size=(1, 3, 3), stride=(1, 1, 1), padding=(0, 1, 1))
                (1): InstanceNorm3d(320, eps=1e-05, momentum=0.1, affine=True, track_running_stats=False)
                (2): LeakyReLU(negative_slope=0.01, inplace=True)
              )
            )
            (conv2): ConvDropoutNormReLU(
              (conv): Conv3d(320, 320, kernel_size=(1, 3, 3), stride=(1, 1, 1), padding=(0, 1, 1))
              (norm): InstanceNorm3d(320, eps=1e-05, momentum=0.1, affine=True, track_running_stats=False)
              (all_modules): Sequential(
                (0): Conv3d(320, 320, kernel_size=(1, 3, 3), stride=(1, 1, 1), padding=(0, 1, 1))
                (1): InstanceNorm3d(320, eps=1e-05, momentum=0.1, affine=True, track_running_stats=False)
              )
            )
            (nonlin2): LeakyReLU(negative_slope=0.01, inplace=True)
          )
        )
      )
      (5): StackedResidualBlocks(
        (blocks): Sequential(
          (0): BasicBlockD(
            (conv1): ConvDropoutNormReLU(
              (conv): Conv3d(320, 320, kernel_size=(1, 3, 3), stride=(1, 2, 2), padding=(0, 1, 1))
              (norm): InstanceNorm3d(320, eps=1e-05, momentum=0.1, affine=True, track_running_stats=False)
              (nonlin): LeakyReLU(negative_slope=0.01, inplace=True)
              (all_modules): Sequential(
                (0): Conv3d(320, 320, kernel_size=(1, 3, 3), stride=(1, 2, 2), padding=(0, 1, 1))
                (1): InstanceNorm3d(320, eps=1e-05, momentum=0.1, affine=True, track_running_stats=False)
                (2): LeakyReLU(negative_slope=0.01, inplace=True)
              )
            )
            (conv2): ConvDropoutNormReLU(
              (conv): Conv3d(320, 320, kernel_size=(1, 3, 3), stride=(1, 1, 1), padding=(0, 1, 1))
              (norm): InstanceNorm3d(320, eps=1e-05, momentum=0.1, affine=True, track_running_stats=False)
              (all_modules): Sequential(
                (0): Conv3d(320, 320, kernel_size=(1, 3, 3), stride=(1, 1, 1), padding=(0, 1, 1))
                (1): InstanceNorm3d(320, eps=1e-05, momentum=0.1, affine=True, track_running_stats=False)
              )
            )
            (nonlin2): LeakyReLU(negative_slope=0.01, inplace=True)
            (skip): Sequential(
              (0): AvgPool3d(kernel_size=[1, 2, 2], stride=[1, 2, 2], padding=0)
            )
          )
          (1): BasicBlockD(
            (conv1): ConvDropoutNormReLU(
              (conv): Conv3d(320, 320, kernel_size=(1, 3, 3), stride=(1, 1, 1), padding=(0, 1, 1))
              (norm): InstanceNorm3d(320, eps=1e-05, momentum=0.1, affine=True, track_running_stats=False)
              (nonlin): LeakyReLU(negative_slope=0.01, inplace=True)
              (all_modules): Sequential(
                (0): Conv3d(320, 320, kernel_size=(1, 3, 3), stride=(1, 1, 1), padding=(0, 1, 1))
                (1): InstanceNorm3d(320, eps=1e-05, momentum=0.1, affine=True, track_running_stats=False)
                (2): LeakyReLU(negative_slope=0.01, inplace=True)
              )
            )
            (conv2): ConvDropoutNormReLU(
              (conv): Conv3d(320, 320, kernel_size=(1, 3, 3), stride=(1, 1, 1), padding=(0, 1, 1))
              (norm): InstanceNorm3d(320, eps=1e-05, momentum=0.1, affine=True, track_running_stats=False)
              (all_modules): Sequential(
                (0): Conv3d(320, 320, kernel_size=(1, 3, 3), stride=(1, 1, 1), padding=(0, 1, 1))
                (1): InstanceNorm3d(320, eps=1e-05, momentum=0.1, affine=True, track_running_stats=False)
              )
            )
            (nonlin2): LeakyReLU(negative_slope=0.01, inplace=True)
          )
        )
      )
    )
    (mamba_layers): ModuleList(
      (0): MambaLayer(
        (norm): LayerNorm((32,), eps=1e-05, elementwise_affine=True)
        (mamba): Mamba(
          (in_proj): Linear(in_features=32, out_features=128, bias=False)
          (conv1d): Conv1d(64, 64, kernel_size=(4,), stride=(1,), padding=(3,), groups=64)
          (act): SiLU()
          (x_proj): Linear(in_features=64, out_features=34, bias=False)
          (dt_proj): Linear(in_features=2, out_features=64, bias=True)
          (out_proj): Linear(in_features=64, out_features=32, bias=False)
        )
      )
      (1): MambaLayer(
        (norm): LayerNorm((64,), eps=1e-05, elementwise_affine=True)
        (mamba): Mamba(
          (in_proj): Linear(in_features=64, out_features=256, bias=False)
          (conv1d): Conv1d(128, 128, kernel_size=(4,), stride=(1,), padding=(3,), groups=128)
          (act): SiLU()
          (x_proj): Linear(in_features=128, out_features=36, bias=False)
          (dt_proj): Linear(in_features=4, out_features=128, bias=True)
          (out_proj): Linear(in_features=128, out_features=64, bias=False)
        )
      )
      (2): MambaLayer(
        (norm): LayerNorm((128,), eps=1e-05, elementwise_affine=True)
        (mamba): Mamba(
          (in_proj): Linear(in_features=128, out_features=512, bias=False)
          (conv1d): Conv1d(256, 256, kernel_size=(4,), stride=(1,), padding=(3,), groups=256)
          (act): SiLU()
          (x_proj): Linear(in_features=256, out_features=40, bias=False)
          (dt_proj): Linear(in_features=8, out_features=256, bias=True)
          (out_proj): Linear(in_features=256, out_features=128, bias=False)
        )
      )
      (3): MambaLayer(
        (norm): LayerNorm((256,), eps=1e-05, elementwise_affine=True)
        (mamba): Mamba(
          (in_proj): Linear(in_features=256, out_features=1024, bias=False)
          (conv1d): Conv1d(512, 512, kernel_size=(4,), stride=(1,), padding=(3,), groups=512)
          (act): SiLU()
          (x_proj): Linear(in_features=512, out_features=48, bias=False)
          (dt_proj): Linear(in_features=16, out_features=512, bias=True)
          (out_proj): Linear(in_features=512, out_features=256, bias=False)
        )
      )
      (4-5): 2 x MambaLayer(
        (norm): LayerNorm((320,), eps=1e-05, elementwise_affine=True)
        (mamba): Mamba(
          (in_proj): Linear(in_features=320, out_features=1280, bias=False)
          (conv1d): Conv1d(640, 640, kernel_size=(4,), stride=(1,), padding=(3,), groups=640)
          (act): SiLU()
          (x_proj): Linear(in_features=640, out_features=52, bias=False)
          (dt_proj): Linear(in_features=20, out_features=640, bias=True)
          (out_proj): Linear(in_features=640, out_features=320, bias=False)
        )
      )
    )
  )
  (decoder): UNetResDecoder(
    (encoder): ResidualMambaEncoder(
      (stem): StackedConvBlocks(
        (convs): Sequential(
          (0): ConvDropoutNormReLU(
            (conv): Conv3d(3, 32, kernel_size=(1, 3, 3), stride=(1, 1, 1), padding=(0, 1, 1))
            (norm): InstanceNorm3d(32, eps=1e-05, momentum=0.1, affine=True, track_running_stats=False)
            (nonlin): LeakyReLU(negative_slope=0.01, inplace=True)
            (all_modules): Sequential(
              (0): Conv3d(3, 32, kernel_size=(1, 3, 3), stride=(1, 1, 1), padding=(0, 1, 1))
              (1): InstanceNorm3d(32, eps=1e-05, momentum=0.1, affine=True, track_running_stats=False)
              (2): LeakyReLU(negative_slope=0.01, inplace=True)
            )
          )
        )
      )
      (stages): ModuleList(
        (0): StackedResidualBlocks(
          (blocks): Sequential(
            (0): BasicBlockD(
              (conv1): ConvDropoutNormReLU(
                (conv): Conv3d(32, 32, kernel_size=(1, 3, 3), stride=(1, 1, 1), padding=(0, 1, 1))
                (norm): InstanceNorm3d(32, eps=1e-05, momentum=0.1, affine=True, track_running_stats=False)
                (nonlin): LeakyReLU(negative_slope=0.01, inplace=True)
                (all_modules): Sequential(
                  (0): Conv3d(32, 32, kernel_size=(1, 3, 3), stride=(1, 1, 1), padding=(0, 1, 1))
                  (1): InstanceNorm3d(32, eps=1e-05, momentum=0.1, affine=True, track_running_stats=False)
                  (2): LeakyReLU(negative_slope=0.01, inplace=True)
                )
              )
              (conv2): ConvDropoutNormReLU(
                (conv): Conv3d(32, 32, kernel_size=(1, 3, 3), stride=(1, 1, 1), padding=(0, 1, 1))
                (norm): InstanceNorm3d(32, eps=1e-05, momentum=0.1, affine=True, track_running_stats=False)
                (all_modules): Sequential(
                  (0): Conv3d(32, 32, kernel_size=(1, 3, 3), stride=(1, 1, 1), padding=(0, 1, 1))
                  (1): InstanceNorm3d(32, eps=1e-05, momentum=0.1, affine=True, track_running_stats=False)
                )
              )
              (nonlin2): LeakyReLU(negative_slope=0.01, inplace=True)
            )
            (1): BasicBlockD(
              (conv1): ConvDropoutNormReLU(
                (conv): Conv3d(32, 32, kernel_size=(1, 3, 3), stride=(1, 1, 1), padding=(0, 1, 1))
                (norm): InstanceNorm3d(32, eps=1e-05, momentum=0.1, affine=True, track_running_stats=False)
                (nonlin): LeakyReLU(negative_slope=0.01, inplace=True)
                (all_modules): Sequential(
                  (0): Conv3d(32, 32, kernel_size=(1, 3, 3), stride=(1, 1, 1), padding=(0, 1, 1))
                  (1): InstanceNorm3d(32, eps=1e-05, momentum=0.1, affine=True, track_running_stats=False)
                  (2): LeakyReLU(negative_slope=0.01, inplace=True)
                )
              )
              (conv2): ConvDropoutNormReLU(
                (conv): Conv3d(32, 32, kernel_size=(1, 3, 3), stride=(1, 1, 1), padding=(0, 1, 1))
                (norm): InstanceNorm3d(32, eps=1e-05, momentum=0.1, affine=True, track_running_stats=False)
                (all_modules): Sequential(
                  (0): Conv3d(32, 32, kernel_size=(1, 3, 3), stride=(1, 1, 1), padding=(0, 1, 1))
                  (1): InstanceNorm3d(32, eps=1e-05, momentum=0.1, affine=True, track_running_stats=False)
                )
              )
              (nonlin2): LeakyReLU(negative_slope=0.01, inplace=True)
            )
          )
        )
        (1): StackedResidualBlocks(
          (blocks): Sequential(
            (0): BasicBlockD(
              (conv1): ConvDropoutNormReLU(
                (conv): Conv3d(32, 64, kernel_size=(1, 3, 3), stride=(1, 2, 2), padding=(0, 1, 1))
                (norm): InstanceNorm3d(64, eps=1e-05, momentum=0.1, affine=True, track_running_stats=False)
                (nonlin): LeakyReLU(negative_slope=0.01, inplace=True)
                (all_modules): Sequential(
                  (0): Conv3d(32, 64, kernel_size=(1, 3, 3), stride=(1, 2, 2), padding=(0, 1, 1))
                  (1): InstanceNorm3d(64, eps=1e-05, momentum=0.1, affine=True, track_running_stats=False)
                  (2): LeakyReLU(negative_slope=0.01, inplace=True)
                )
              )
              (conv2): ConvDropoutNormReLU(
                (conv): Conv3d(64, 64, kernel_size=(1, 3, 3), stride=(1, 1, 1), padding=(0, 1, 1))
                (norm): InstanceNorm3d(64, eps=1e-05, momentum=0.1, affine=True, track_running_stats=False)
                (all_modules): Sequential(
                  (0): Conv3d(64, 64, kernel_size=(1, 3, 3), stride=(1, 1, 1), padding=(0, 1, 1))
                  (1): InstanceNorm3d(64, eps=1e-05, momentum=0.1, affine=True, track_running_stats=False)
                )
              )
              (nonlin2): LeakyReLU(negative_slope=0.01, inplace=True)
              (skip): Sequential(
                (0): AvgPool3d(kernel_size=[1, 2, 2], stride=[1, 2, 2], padding=0)
                (1): ConvDropoutNormReLU(
                  (conv): Conv3d(32, 64, kernel_size=(1, 1, 1), stride=(1, 1, 1), bias=False)
                  (norm): InstanceNorm3d(64, eps=1e-05, momentum=0.1, affine=True, track_running_stats=False)
                  (all_modules): Sequential(
                    (0): Conv3d(32, 64, kernel_size=(1, 1, 1), stride=(1, 1, 1), bias=False)
                    (1): InstanceNorm3d(64, eps=1e-05, momentum=0.1, affine=True, track_running_stats=False)
                  )
                )
              )
            )
            (1): BasicBlockD(
              (conv1): ConvDropoutNormReLU(
                (conv): Conv3d(64, 64, kernel_size=(1, 3, 3), stride=(1, 1, 1), padding=(0, 1, 1))
                (norm): InstanceNorm3d(64, eps=1e-05, momentum=0.1, affine=True, track_running_stats=False)
                (nonlin): LeakyReLU(negative_slope=0.01, inplace=True)
                (all_modules): Sequential(
                  (0): Conv3d(64, 64, kernel_size=(1, 3, 3), stride=(1, 1, 1), padding=(0, 1, 1))
                  (1): InstanceNorm3d(64, eps=1e-05, momentum=0.1, affine=True, track_running_stats=False)
                  (2): LeakyReLU(negative_slope=0.01, inplace=True)
                )
              )
              (conv2): ConvDropoutNormReLU(
                (conv): Conv3d(64, 64, kernel_size=(1, 3, 3), stride=(1, 1, 1), padding=(0, 1, 1))
                (norm): InstanceNorm3d(64, eps=1e-05, momentum=0.1, affine=True, track_running_stats=False)
                (all_modules): Sequential(
                  (0): Conv3d(64, 64, kernel_size=(1, 3, 3), stride=(1, 1, 1), padding=(0, 1, 1))
                  (1): InstanceNorm3d(64, eps=1e-05, momentum=0.1, affine=True, track_running_stats=False)
                )
              )
              (nonlin2): LeakyReLU(negative_slope=0.01, inplace=True)
            )
          )
        )
        (2): StackedResidualBlocks(
          (blocks): Sequential(
            (0): BasicBlockD(
              (conv1): ConvDropoutNormReLU(
                (conv): Conv3d(64, 128, kernel_size=(1, 3, 3), stride=(1, 2, 2), padding=(0, 1, 1))
                (norm): InstanceNorm3d(128, eps=1e-05, momentum=0.1, affine=True, track_running_stats=False)
                (nonlin): LeakyReLU(negative_slope=0.01, inplace=True)
                (all_modules): Sequential(
                  (0): Conv3d(64, 128, kernel_size=(1, 3, 3), stride=(1, 2, 2), padding=(0, 1, 1))
                  (1): InstanceNorm3d(128, eps=1e-05, momentum=0.1, affine=True, track_running_stats=False)
                  (2): LeakyReLU(negative_slope=0.01, inplace=True)
                )
              )
              (conv2): ConvDropoutNormReLU(
                (conv): Conv3d(128, 128, kernel_size=(1, 3, 3), stride=(1, 1, 1), padding=(0, 1, 1))
                (norm): InstanceNorm3d(128, eps=1e-05, momentum=0.1, affine=True, track_running_stats=False)
                (all_modules): Sequential(
                  (0): Conv3d(128, 128, kernel_size=(1, 3, 3), stride=(1, 1, 1), padding=(0, 1, 1))
                  (1): InstanceNorm3d(128, eps=1e-05, momentum=0.1, affine=True, track_running_stats=False)
                )
              )
              (nonlin2): LeakyReLU(negative_slope=0.01, inplace=True)
              (skip): Sequential(
                (0): AvgPool3d(kernel_size=[1, 2, 2], stride=[1, 2, 2], padding=0)
                (1): ConvDropoutNormReLU(
                  (conv): Conv3d(64, 128, kernel_size=(1, 1, 1), stride=(1, 1, 1), bias=False)
                  (norm): InstanceNorm3d(128, eps=1e-05, momentum=0.1, affine=True, track_running_stats=False)
                  (all_modules): Sequential(
                    (0): Conv3d(64, 128, kernel_size=(1, 1, 1), stride=(1, 1, 1), bias=False)
                    (1): InstanceNorm3d(128, eps=1e-05, momentum=0.1, affine=True, track_running_stats=False)
                  )
                )
              )
            )
            (1): BasicBlockD(
              (conv1): ConvDropoutNormReLU(
                (conv): Conv3d(128, 128, kernel_size=(1, 3, 3), stride=(1, 1, 1), padding=(0, 1, 1))
                (norm): InstanceNorm3d(128, eps=1e-05, momentum=0.1, affine=True, track_running_stats=False)
                (nonlin): LeakyReLU(negative_slope=0.01, inplace=True)
                (all_modules): Sequential(
                  (0): Conv3d(128, 128, kernel_size=(1, 3, 3), stride=(1, 1, 1), padding=(0, 1, 1))
                  (1): InstanceNorm3d(128, eps=1e-05, momentum=0.1, affine=True, track_running_stats=False)
                  (2): LeakyReLU(negative_slope=0.01, inplace=True)
                )
              )
              (conv2): ConvDropoutNormReLU(
                (conv): Conv3d(128, 128, kernel_size=(1, 3, 3), stride=(1, 1, 1), padding=(0, 1, 1))
                (norm): InstanceNorm3d(128, eps=1e-05, momentum=0.1, affine=True, track_running_stats=False)
                (all_modules): Sequential(
                  (0): Conv3d(128, 128, kernel_size=(1, 3, 3), stride=(1, 1, 1), padding=(0, 1, 1))
                  (1): InstanceNorm3d(128, eps=1e-05, momentum=0.1, affine=True, track_running_stats=False)
                )
              )
              (nonlin2): LeakyReLU(negative_slope=0.01, inplace=True)
            )
          )
        )
        (3): StackedResidualBlocks(
          (blocks): Sequential(
            (0): BasicBlockD(
              (conv1): ConvDropoutNormReLU(
                (conv): Conv3d(128, 256, kernel_size=(1, 3, 3), stride=(1, 2, 2), padding=(0, 1, 1))
                (norm): InstanceNorm3d(256, eps=1e-05, momentum=0.1, affine=True, track_running_stats=False)
                (nonlin): LeakyReLU(negative_slope=0.01, inplace=True)
                (all_modules): Sequential(
                  (0): Conv3d(128, 256, kernel_size=(1, 3, 3), stride=(1, 2, 2), padding=(0, 1, 1))
                  (1): InstanceNorm3d(256, eps=1e-05, momentum=0.1, affine=True, track_running_stats=False)
                  (2): LeakyReLU(negative_slope=0.01, inplace=True)
                )
              )
              (conv2): ConvDropoutNormReLU(
                (conv): Conv3d(256, 256, kernel_size=(1, 3, 3), stride=(1, 1, 1), padding=(0, 1, 1))
                (norm): InstanceNorm3d(256, eps=1e-05, momentum=0.1, affine=True, track_running_stats=False)
                (all_modules): Sequential(
                  (0): Conv3d(256, 256, kernel_size=(1, 3, 3), stride=(1, 1, 1), padding=(0, 1, 1))
                  (1): InstanceNorm3d(256, eps=1e-05, momentum=0.1, affine=True, track_running_stats=False)
                )
              )
              (nonlin2): LeakyReLU(negative_slope=0.01, inplace=True)
              (skip): Sequential(
                (0): AvgPool3d(kernel_size=[1, 2, 2], stride=[1, 2, 2], padding=0)
                (1): ConvDropoutNormReLU(
                  (conv): Conv3d(128, 256, kernel_size=(1, 1, 1), stride=(1, 1, 1), bias=False)
                  (norm): InstanceNorm3d(256, eps=1e-05, momentum=0.1, affine=True, track_running_stats=False)
                  (all_modules): Sequential(
                    (0): Conv3d(128, 256, kernel_size=(1, 1, 1), stride=(1, 1, 1), bias=False)
                    (1): InstanceNorm3d(256, eps=1e-05, momentum=0.1, affine=True, track_running_stats=False)
                  )
                )
              )
            )
            (1): BasicBlockD(
              (conv1): ConvDropoutNormReLU(
                (conv): Conv3d(256, 256, kernel_size=(1, 3, 3), stride=(1, 1, 1), padding=(0, 1, 1))
                (norm): InstanceNorm3d(256, eps=1e-05, momentum=0.1, affine=True, track_running_stats=False)
                (nonlin): LeakyReLU(negative_slope=0.01, inplace=True)
                (all_modules): Sequential(
                  (0): Conv3d(256, 256, kernel_size=(1, 3, 3), stride=(1, 1, 1), padding=(0, 1, 1))
                  (1): InstanceNorm3d(256, eps=1e-05, momentum=0.1, affine=True, track_running_stats=False)
                  (2): LeakyReLU(negative_slope=0.01, inplace=True)
                )
              )
              (conv2): ConvDropoutNormReLU(
                (conv): Conv3d(256, 256, kernel_size=(1, 3, 3), stride=(1, 1, 1), padding=(0, 1, 1))
                (norm): InstanceNorm3d(256, eps=1e-05, momentum=0.1, affine=True, track_running_stats=False)
                (all_modules): Sequential(
                  (0): Conv3d(256, 256, kernel_size=(1, 3, 3), stride=(1, 1, 1), padding=(0, 1, 1))
                  (1): InstanceNorm3d(256, eps=1e-05, momentum=0.1, affine=True, track_running_stats=False)
                )
              )
              (nonlin2): LeakyReLU(negative_slope=0.01, inplace=True)
            )
          )
        )
        (4): StackedResidualBlocks(
          (blocks): Sequential(
            (0): BasicBlockD(
              (conv1): ConvDropoutNormReLU(
                (conv): Conv3d(256, 320, kernel_size=(1, 3, 3), stride=(1, 2, 2), padding=(0, 1, 1))
                (norm): InstanceNorm3d(320, eps=1e-05, momentum=0.1, affine=True, track_running_stats=False)
                (nonlin): LeakyReLU(negative_slope=0.01, inplace=True)
                (all_modules): Sequential(
                  (0): Conv3d(256, 320, kernel_size=(1, 3, 3), stride=(1, 2, 2), padding=(0, 1, 1))
                  (1): InstanceNorm3d(320, eps=1e-05, momentum=0.1, affine=True, track_running_stats=False)
                  (2): LeakyReLU(negative_slope=0.01, inplace=True)
                )
              )
              (conv2): ConvDropoutNormReLU(
                (conv): Conv3d(320, 320, kernel_size=(1, 3, 3), stride=(1, 1, 1), padding=(0, 1, 1))
                (norm): InstanceNorm3d(320, eps=1e-05, momentum=0.1, affine=True, track_running_stats=False)
                (all_modules): Sequential(
                  (0): Conv3d(320, 320, kernel_size=(1, 3, 3), stride=(1, 1, 1), padding=(0, 1, 1))
                  (1): InstanceNorm3d(320, eps=1e-05, momentum=0.1, affine=True, track_running_stats=False)
                )
              )
              (nonlin2): LeakyReLU(negative_slope=0.01, inplace=True)
              (skip): Sequential(
                (0): AvgPool3d(kernel_size=[1, 2, 2], stride=[1, 2, 2], padding=0)
                (1): ConvDropoutNormReLU(
                  (conv): Conv3d(256, 320, kernel_size=(1, 1, 1), stride=(1, 1, 1), bias=False)
                  (norm): InstanceNorm3d(320, eps=1e-05, momentum=0.1, affine=True, track_running_stats=False)
                  (all_modules): Sequential(
                    (0): Conv3d(256, 320, kernel_size=(1, 1, 1), stride=(1, 1, 1), bias=False)
                    (1): InstanceNorm3d(320, eps=1e-05, momentum=0.1, affine=True, track_running_stats=False)
                  )
                )
              )
            )
            (1): BasicBlockD(
              (conv1): ConvDropoutNormReLU(
                (conv): Conv3d(320, 320, kernel_size=(1, 3, 3), stride=(1, 1, 1), padding=(0, 1, 1))
                (norm): InstanceNorm3d(320, eps=1e-05, momentum=0.1, affine=True, track_running_stats=False)
                (nonlin): LeakyReLU(negative_slope=0.01, inplace=True)
                (all_modules): Sequential(
                  (0): Conv3d(320, 320, kernel_size=(1, 3, 3), stride=(1, 1, 1), padding=(0, 1, 1))
                  (1): InstanceNorm3d(320, eps=1e-05, momentum=0.1, affine=True, track_running_stats=False)
                  (2): LeakyReLU(negative_slope=0.01, inplace=True)
                )
              )
              (conv2): ConvDropoutNormReLU(
                (conv): Conv3d(320, 320, kernel_size=(1, 3, 3), stride=(1, 1, 1), padding=(0, 1, 1))
                (norm): InstanceNorm3d(320, eps=1e-05, momentum=0.1, affine=True, track_running_stats=False)
                (all_modules): Sequential(
                  (0): Conv3d(320, 320, kernel_size=(1, 3, 3), stride=(1, 1, 1), padding=(0, 1, 1))
                  (1): InstanceNorm3d(320, eps=1e-05, momentum=0.1, affine=True, track_running_stats=False)
                )
              )
              (nonlin2): LeakyReLU(negative_slope=0.01, inplace=True)
            )
          )
        )
        (5): StackedResidualBlocks(
          (blocks): Sequential(
            (0): BasicBlockD(
              (conv1): ConvDropoutNormReLU(
                (conv): Conv3d(320, 320, kernel_size=(1, 3, 3), stride=(1, 2, 2), padding=(0, 1, 1))
                (norm): InstanceNorm3d(320, eps=1e-05, momentum=0.1, affine=True, track_running_stats=False)
                (nonlin): LeakyReLU(negative_slope=0.01, inplace=True)
                (all_modules): Sequential(
                  (0): Conv3d(320, 320, kernel_size=(1, 3, 3), stride=(1, 2, 2), padding=(0, 1, 1))
                  (1): InstanceNorm3d(320, eps=1e-05, momentum=0.1, affine=True, track_running_stats=False)
                  (2): LeakyReLU(negative_slope=0.01, inplace=True)
                )
              )
              (conv2): ConvDropoutNormReLU(
                (conv): Conv3d(320, 320, kernel_size=(1, 3, 3), stride=(1, 1, 1), padding=(0, 1, 1))
                (norm): InstanceNorm3d(320, eps=1e-05, momentum=0.1, affine=True, track_running_stats=False)
                (all_modules): Sequential(
                  (0): Conv3d(320, 320, kernel_size=(1, 3, 3), stride=(1, 1, 1), padding=(0, 1, 1))
                  (1): InstanceNorm3d(320, eps=1e-05, momentum=0.1, affine=True, track_running_stats=False)
                )
              )
              (nonlin2): LeakyReLU(negative_slope=0.01, inplace=True)
              (skip): Sequential(
                (0): AvgPool3d(kernel_size=[1, 2, 2], stride=[1, 2, 2], padding=0)
              )
            )
            (1): BasicBlockD(
              (conv1): ConvDropoutNormReLU(
                (conv): Conv3d(320, 320, kernel_size=(1, 3, 3), stride=(1, 1, 1), padding=(0, 1, 1))
                (norm): InstanceNorm3d(320, eps=1e-05, momentum=0.1, affine=True, track_running_stats=False)
                (nonlin): LeakyReLU(negative_slope=0.01, inplace=True)
                (all_modules): Sequential(
                  (0): Conv3d(320, 320, kernel_size=(1, 3, 3), stride=(1, 1, 1), padding=(0, 1, 1))
                  (1): InstanceNorm3d(320, eps=1e-05, momentum=0.1, affine=True, track_running_stats=False)
                  (2): LeakyReLU(negative_slope=0.01, inplace=True)
                )
              )
              (conv2): ConvDropoutNormReLU(
                (conv): Conv3d(320, 320, kernel_size=(1, 3, 3), stride=(1, 1, 1), padding=(0, 1, 1))
                (norm): InstanceNorm3d(320, eps=1e-05, momentum=0.1, affine=True, track_running_stats=False)
                (all_modules): Sequential(
                  (0): Conv3d(320, 320, kernel_size=(1, 3, 3), stride=(1, 1, 1), padding=(0, 1, 1))
                  (1): InstanceNorm3d(320, eps=1e-05, momentum=0.1, affine=True, track_running_stats=False)
                )
              )
              (nonlin2): LeakyReLU(negative_slope=0.01, inplace=True)
            )
          )
        )
      )
      (mamba_layers): ModuleList(
        (0): MambaLayer(
          (norm): LayerNorm((32,), eps=1e-05, elementwise_affine=True)
          (mamba): Mamba(
            (in_proj): Linear(in_features=32, out_features=128, bias=False)
            (conv1d): Conv1d(64, 64, kernel_size=(4,), stride=(1,), padding=(3,), groups=64)
            (act): SiLU()
            (x_proj): Linear(in_features=64, out_features=34, bias=False)
            (dt_proj): Linear(in_features=2, out_features=64, bias=True)
            (out_proj): Linear(in_features=64, out_features=32, bias=False)
          )
        )
        (1): MambaLayer(
          (norm): LayerNorm((64,), eps=1e-05, elementwise_affine=True)
          (mamba): Mamba(
            (in_proj): Linear(in_features=64, out_features=256, bias=False)
            (conv1d): Conv1d(128, 128, kernel_size=(4,), stride=(1,), padding=(3,), groups=128)
            (act): SiLU()
            (x_proj): Linear(in_features=128, out_features=36, bias=False)
            (dt_proj): Linear(in_features=4, out_features=128, bias=True)
            (out_proj): Linear(in_features=128, out_features=64, bias=False)
          )
        )
        (2): MambaLayer(
          (norm): LayerNorm((128,), eps=1e-05, elementwise_affine=True)
          (mamba): Mamba(
            (in_proj): Linear(in_features=128, out_features=512, bias=False)
            (conv1d): Conv1d(256, 256, kernel_size=(4,), stride=(1,), padding=(3,), groups=256)
            (act): SiLU()
            (x_proj): Linear(in_features=256, out_features=40, bias=False)
            (dt_proj): Linear(in_features=8, out_features=256, bias=True)
            (out_proj): Linear(in_features=256, out_features=128, bias=False)
          )
        )
        (3): MambaLayer(
          (norm): LayerNorm((256,), eps=1e-05, elementwise_affine=True)
          (mamba): Mamba(
            (in_proj): Linear(in_features=256, out_features=1024, bias=False)
            (conv1d): Conv1d(512, 512, kernel_size=(4,), stride=(1,), padding=(3,), groups=512)
            (act): SiLU()
            (x_proj): Linear(in_features=512, out_features=48, bias=False)
            (dt_proj): Linear(in_features=16, out_features=512, bias=True)
            (out_proj): Linear(in_features=512, out_features=256, bias=False)
          )
        )
        (4-5): 2 x MambaLayer(
          (norm): LayerNorm((320,), eps=1e-05, elementwise_affine=True)
          (mamba): Mamba(
            (in_proj): Linear(in_features=320, out_features=1280, bias=False)
            (conv1d): Conv1d(640, 640, kernel_size=(4,), stride=(1,), padding=(3,), groups=640)
            (act): SiLU()
            (x_proj): Linear(in_features=640, out_features=52, bias=False)
            (dt_proj): Linear(in_features=20, out_features=640, bias=True)
            (out_proj): Linear(in_features=640, out_features=320, bias=False)
          )
        )
      )
    )
    (lzz_layers): ModuleList(
      (0): ModuleList(
        (0): StackedResidualBlocks(
          (blocks): Sequential(
            (0): BasicBlockD(
              (conv1): ConvDropoutNormReLU(
                (conv): Conv3d(96, 96, kernel_size=(3, 3, 3), stride=(2, 2, 2), padding=(1, 1, 1))
                (norm): InstanceNorm3d(96, eps=1e-05, momentum=0.1, affine=True, track_running_stats=False)
                (nonlin): LeakyReLU(negative_slope=0.01, inplace=True)
                (all_modules): Sequential(
                  (0): Conv3d(96, 96, kernel_size=(3, 3, 3), stride=(2, 2, 2), padding=(1, 1, 1))
                  (1): InstanceNorm3d(96, eps=1e-05, momentum=0.1, affine=True, track_running_stats=False)
                  (2): LeakyReLU(negative_slope=0.01, inplace=True)
                )
              )
              (conv2): ConvDropoutNormReLU(
                (conv): Conv3d(96, 96, kernel_size=(3, 3, 3), stride=(1, 1, 1), padding=(1, 1, 1))
                (norm): InstanceNorm3d(96, eps=1e-05, momentum=0.1, affine=True, track_running_stats=False)
                (all_modules): Sequential(
                  (0): Conv3d(96, 96, kernel_size=(3, 3, 3), stride=(1, 1, 1), padding=(1, 1, 1))
                  (1): InstanceNorm3d(96, eps=1e-05, momentum=0.1, affine=True, track_running_stats=False)
                )
              )
              (nonlin2): LeakyReLU(negative_slope=0.01, inplace=True)
              (skip): Sequential(
                (0): AvgPool3d(kernel_size=(2, 2, 2), stride=(2, 2, 2), padding=0)
              )
            )
            (1): BasicBlockD(
              (conv1): ConvDropoutNormReLU(
                (conv): Conv3d(96, 96, kernel_size=(3, 3, 3), stride=(1, 1, 1), padding=(1, 1, 1))
                (norm): InstanceNorm3d(96, eps=1e-05, momentum=0.1, affine=True, track_running_stats=False)
                (nonlin): LeakyReLU(negative_slope=0.01, inplace=True)
                (all_modules): Sequential(
                  (0): Conv3d(96, 96, kernel_size=(3, 3, 3), stride=(1, 1, 1), padding=(1, 1, 1))
                  (1): InstanceNorm3d(96, eps=1e-05, momentum=0.1, affine=True, track_running_stats=False)
                  (2): LeakyReLU(negative_slope=0.01, inplace=True)
                )
              )
              (conv2): ConvDropoutNormReLU(
                (conv): Conv3d(96, 96, kernel_size=(3, 3, 3), stride=(1, 1, 1), padding=(1, 1, 1))
                (norm): InstanceNorm3d(96, eps=1e-05, momentum=0.1, affine=True, track_running_stats=False)
                (all_modules): Sequential(
                  (0): Conv3d(96, 96, kernel_size=(3, 3, 3), stride=(1, 1, 1), padding=(1, 1, 1))
                  (1): InstanceNorm3d(96, eps=1e-05, momentum=0.1, affine=True, track_running_stats=False)
                )
              )
              (nonlin2): LeakyReLU(negative_slope=0.01, inplace=True)
            )
          )
        )
        (1-2): 2 x StackedResidualBlocks(
          (blocks): Sequential(
            (0): BasicBlockD(
              (conv1): ConvDropoutNormReLU(
                (conv): Conv3d(96, 96, kernel_size=(3, 1, 1), stride=(2, 1, 1), padding=(1, 0, 0))
                (norm): InstanceNorm3d(96, eps=1e-05, momentum=0.1, affine=True, track_running_stats=False)
                (nonlin): LeakyReLU(negative_slope=0.01, inplace=True)
                (all_modules): Sequential(
                  (0): Conv3d(96, 96, kernel_size=(3, 1, 1), stride=(2, 1, 1), padding=(1, 0, 0))
                  (1): InstanceNorm3d(96, eps=1e-05, momentum=0.1, affine=True, track_running_stats=False)
                  (2): LeakyReLU(negative_slope=0.01, inplace=True)
                )
              )
              (conv2): ConvDropoutNormReLU(
                (conv): Conv3d(96, 96, kernel_size=(3, 1, 1), stride=(1, 1, 1), padding=(1, 0, 0))
                (norm): InstanceNorm3d(96, eps=1e-05, momentum=0.1, affine=True, track_running_stats=False)
                (all_modules): Sequential(
                  (0): Conv3d(96, 96, kernel_size=(3, 1, 1), stride=(1, 1, 1), padding=(1, 0, 0))
                  (1): InstanceNorm3d(96, eps=1e-05, momentum=0.1, affine=True, track_running_stats=False)
                )
              )
              (nonlin2): LeakyReLU(negative_slope=0.01, inplace=True)
              (skip): Sequential(
                (0): AvgPool3d(kernel_size=(2, 1, 1), stride=(2, 1, 1), padding=0)
              )
            )
            (1): BasicBlockD(
              (conv1): ConvDropoutNormReLU(
                (conv): Conv3d(96, 96, kernel_size=(3, 1, 1), stride=(1, 1, 1), padding=(1, 0, 0))
                (norm): InstanceNorm3d(96, eps=1e-05, momentum=0.1, affine=True, track_running_stats=False)
                (nonlin): LeakyReLU(negative_slope=0.01, inplace=True)
                (all_modules): Sequential(
                  (0): Conv3d(96, 96, kernel_size=(3, 1, 1), stride=(1, 1, 1), padding=(1, 0, 0))
                  (1): InstanceNorm3d(96, eps=1e-05, momentum=0.1, affine=True, track_running_stats=False)
                  (2): LeakyReLU(negative_slope=0.01, inplace=True)
                )
              )
              (conv2): ConvDropoutNormReLU(
                (conv): Conv3d(96, 96, kernel_size=(3, 1, 1), stride=(1, 1, 1), padding=(1, 0, 0))
                (norm): InstanceNorm3d(96, eps=1e-05, momentum=0.1, affine=True, track_running_stats=False)
                (all_modules): Sequential(
                  (0): Conv3d(96, 96, kernel_size=(3, 1, 1), stride=(1, 1, 1), padding=(1, 0, 0))
                  (1): InstanceNorm3d(96, eps=1e-05, momentum=0.1, affine=True, track_running_stats=False)
                )
              )
              (nonlin2): LeakyReLU(negative_slope=0.01, inplace=True)
            )
          )
        )
      )
    )
    (lzz_fc): ModuleList(
      (0): ModuleList(
        (0): Sequential(
          (0): Dropout(p=0.1, inplace=False)
          (1): Linear(in_features=160, out_features=80, bias=True)
          (2): Tanh()
        )
        (1): Sequential(
          (0): Dropout(p=0.1, inplace=False)
          (1): Linear(in_features=80, out_features=1, bias=True)
          (2): Tanh()
        )
      )
    )
  )
)

This is the configuration used by this training:
Configuration name: 3d_fullres
 {'data_identifier': 'nnUNetPlans_3d_fullres', 'preprocessor_name': 'DefaultPreprocessor', 'batch_size': 4, 'patch_size': [96, 128, 128], 'median_image_size_in_voxels': [97.0, 512.0, 512.0], 'spacing': [2.5, 0.79589849710464
…
